{"backend": "tensorflow", "keras_version": "2.2.0", "class_name": "Model", "config": {"input_layers": [["input_1", 0, 0]], "layers": [{"name": "input_1", "class_name": "InputLayer", "inbound_nodes": [], "config": {"batch_input_shape": [null, 224, 224, 3], "sparse": false, "dtype": "float32", "name": "input_1"}}, {"name": "conv1_pad", "class_name": "ZeroPadding2D", "inbound_nodes": [[["input_1", 0, 0, {}]]], "config": {"data_format": "channels_last", "name": "conv1_pad", "trainable": true, "padding": [[3, 3], [3, 3]]}}, {"name": "conv1", "class_name": "Conv2D", "inbound_nodes": [[["conv1_pad", 0, 0, {}]]], "config": {"kernel_initializer": {"class_name": "VarianceScaling", "config": {"mode": "fan_avg", "seed": null, "scale": 1.0, "distribution": "uniform"}}, "data_format": "channels_last", "bias_initializer": {"class_name": "Zeros", "config": {}}, "dilation_rate": [1, 1], "padding": "valid", "name": "conv1", "use_bias": true, "bias_constraint": null, "kernel_size": [7, 7], "trainable": true, "activation": "linear", "kernel_constraint": null, "bias_regularizer": null, "kernel_regularizer": null, "filters": 64, "strides": [2, 2], "activity_regularizer": null}}, {"name": "bn_conv1", "class_name": "BatchNormalization", "inbound_nodes": [[["conv1", 0, 0, {}]]], "config": {"name": "bn_conv1", "moving_variance_initializer": {"class_name": "Ones", "config": {}}, "epsilon": 0.001, "beta_initializer": {"class_name": "Zeros", "config": {}}, "gamma_regularizer": null, "scale": true, "center": true, "gamma_constraint": null, "momentum": 0.99, "trainable": true, "beta_constraint": null, "moving_mean_initializer": {"class_name": "Zeros", "config": {}}, "gamma_initializer": {"class_name": "Ones", "config": {}}, "beta_regularizer": null, "axis": 3}}, {"name": "activation_1", "class_name": "Activation", "inbound_nodes": [[["bn_conv1", 0, 0, {}]]], "config": {"name": "activation_1", "trainable": true, "activation": "relu"}}, {"name": "max_pooling2d_1", "class_name": "MaxPooling2D", "inbound_nodes": [[["activation_1", 0, 0, {}]]], "config": {"data_format": "channels_last", "trainable": true, "name": "max_pooling2d_1", "padding": "valid", "strides": [2, 2], "pool_size": [3, 3]}}, {"name": "res2a_branch2a", "class_name": "Conv2D", "inbound_nodes": [[["max_pooling2d_1", 0, 0, {}]]], "config": {"kernel_initializer": {"class_name": "VarianceScaling", "config": {"mode": "fan_avg", "seed": null, "scale": 1.0, "distribution": "uniform"}}, "data_format": "channels_last", "bias_initializer": {"class_name": "Zeros", "config": {}}, "dilation_rate": [1, 1], "padding": "valid", "name": "res2a_branch2a", "use_bias": true, "bias_constraint": null, "kernel_size": [1, 1], "trainable": true, "activation": "linear", "kernel_constraint": null, "bias_regularizer": null, "kernel_regularizer": null, "filters": 64, "strides": [1, 1], "activity_regularizer": null}}, {"name": "bn2a_branch2a", "class_name": "BatchNormalization", "inbound_nodes": [[["res2a_branch2a", 0, 0, {}]]], "config": {"name": "bn2a_branch2a", "moving_variance_initializer": {"class_name": "Ones", "config": {}}, "epsilon": 0.001, "beta_initializer": {"class_name": "Zeros", "config": {}}, "gamma_regularizer": null, "scale": true, "center": true, "gamma_constraint": null, "momentum": 0.99, "trainable": true, "beta_constraint": null, "moving_mean_initializer": {"class_name": "Zeros", "config": {}}, "gamma_initializer": {"class_name": "Ones", "config": {}}, "beta_regularizer": null, "axis": 3}}, {"name": "activation_2", "class_name": "Activation", "inbound_nodes": [[["bn2a_branch2a", 0, 0, {}]]], "config": {"name": "activation_2", "trainable": true, "activation": "relu"}}, {"name": "res2a_branch2b", "class_name": "Conv2D", "inbound_nodes": [[["activation_2", 0, 0, {}]]], "config": {"kernel_initializer": {"class_name": "VarianceScaling", "config": {"mode": "fan_avg", "seed": null, "scale": 1.0, "distribution": "uniform"}}, "data_format": "channels_last", "bias_initializer": {"class_name": "Zeros", "config": {}}, "dilation_rate": [1, 1], "padding": "same", "name": "res2a_branch2b", "use_bias": true, "bias_constraint": null, "kernel_size": [3, 3], "trainable": true, "activation": "linear", "kernel_constraint": null, "bias_regularizer": null, "kernel_regularizer": null, "filters": 64, "strides": [1, 1], "activity_regularizer": null}}, {"name": "bn2a_branch2b", "class_name": "BatchNormalization", "inbound_nodes": [[["res2a_branch2b", 0, 0, {}]]], "config": {"name": "bn2a_branch2b", "moving_variance_initializer": {"class_name": "Ones", "config": {}}, "epsilon": 0.001, "beta_initializer": {"class_name": "Zeros", "config": {}}, "gamma_regularizer": null, "scale": true, "center": true, "gamma_constraint": null, "momentum": 0.99, "trainable": true, "beta_constraint": null, "moving_mean_initializer": {"class_name": "Zeros", "config": {}}, "gamma_initializer": {"class_name": "Ones", "config": {}}, "beta_regularizer": null, "axis": 3}}, {"name": "activation_3", "class_name": "Activation", "inbound_nodes": [[["bn2a_branch2b", 0, 0, {}]]], "config": {"name": "activation_3", "trainable": true, "activation": "relu"}}, {"name": "res2a_branch2c", "class_name": "Conv2D", "inbound_nodes": [[["activation_3", 0, 0, {}]]], "config": {"kernel_initializer": {"class_name": "VarianceScaling", "config": {"mode": "fan_avg", "seed": null, "scale": 1.0, "distribution": "uniform"}}, "data_format": "channels_last", "bias_initializer": {"class_name": "Zeros", "config": {}}, "dilation_rate": [1, 1], "padding": "valid", "name": "res2a_branch2c", "use_bias": true, "bias_constraint": null, "kernel_size": [1, 1], "trainable": true, "activation": "linear", "kernel_constraint": null, "bias_regularizer": null, "kernel_regularizer": null, "filters": 256, "strides": [1, 1], "activity_regularizer": null}}, {"name": "res2a_branch1", "class_name": "Conv2D", "inbound_nodes": [[["max_pooling2d_1", 0, 0, {}]]], "config": {"kernel_initializer": {"class_name": "VarianceScaling", "config": {"mode": "fan_avg", "seed": null, "scale": 1.0, "distribution": "uniform"}}, "data_format": "channels_last", "bias_initializer": {"class_name": "Zeros", "config": {}}, "dilation_rate": [1, 1], "padding": "valid", "name": "res2a_branch1", "use_bias": true, "bias_constraint": null, "kernel_size": [1, 1], "trainable": true, "activation": "linear", "kernel_constraint": null, "bias_regularizer": null, "kernel_regularizer": null, "filters": 256, "strides": [1, 1], "activity_regularizer": null}}, {"name": "bn2a_branch2c", "class_name": "BatchNormalization", "inbound_nodes": [[["res2a_branch2c", 0, 0, {}]]], "config": {"name": "bn2a_branch2c", "moving_variance_initializer": {"class_name": "Ones", "config": {}}, "epsilon": 0.001, "beta_initializer": {"class_name": "Zeros", "config": {}}, "gamma_regularizer": null, "scale": true, "center": true, "gamma_constraint": null, "momentum": 0.99, "trainable": true, "beta_constraint": null, "moving_mean_initializer": {"class_name": "Zeros", "config": {}}, "gamma_initializer": {"class_name": "Ones", "config": {}}, "beta_regularizer": null, "axis": 3}}, {"name": "bn2a_branch1", "class_name": "BatchNormalization", "inbound_nodes": [[["res2a_branch1", 0, 0, {}]]], "config": {"name": "bn2a_branch1", "moving_variance_initializer": {"class_name": "Ones", "config": {}}, "epsilon": 0.001, "beta_initializer": {"class_name": "Zeros", "config": {}}, "gamma_regularizer": null, "scale": true, "center": true, "gamma_constraint": null, "momentum": 0.99, "trainable": true, "beta_constraint": null, "moving_mean_initializer": {"class_name": "Zeros", "config": {}}, "gamma_initializer": {"class_name": "Ones", "config": {}}, "beta_regularizer": null, "axis": 3}}, {"name": "add_1", "class_name": "Add", "inbound_nodes": [[["bn2a_branch2c", 0, 0, {}], ["bn2a_branch1", 0, 0, {}]]], "config": {"name": "add_1", "trainable": true}}, {"name": "activation_4", "class_name": "Activation", "inbound_nodes": [[["add_1", 0, 0, {}]]], "config": {"name": "activation_4", "trainable": true, "activation": "relu"}}, {"name": "res2b_branch2a", "class_name": "Conv2D", "inbound_nodes": [[["activation_4", 0, 0, {}]]], "config": {"kernel_initializer": {"class_name": "VarianceScaling", "config": {"mode": "fan_avg", "seed": null, "scale": 1.0, "distribution": "uniform"}}, "data_format": "channels_last", "bias_initializer": {"class_name": "Zeros", "config": {}}, "dilation_rate": [1, 1], "padding": "valid", "name": "res2b_branch2a", "use_bias": true, "bias_constraint": null, "kernel_size": [1, 1], "trainable": true, "activation": "linear", "kernel_constraint": null, "bias_regularizer": null, "kernel_regularizer": null, "filters": 64, "strides": [1, 1], "activity_regularizer": null}}, {"name": "bn2b_branch2a", "class_name": "BatchNormalization", "inbound_nodes": [[["res2b_branch2a", 0, 0, {}]]], "config": {"name": "bn2b_branch2a", "moving_variance_initializer": {"class_name": "Ones", "config": {}}, "epsilon": 0.001, "beta_initializer": {"class_name": "Zeros", "config": {}}, "gamma_regularizer": null, "scale": true, "center": true, "gamma_constraint": null, "momentum": 0.99, "trainable": true, "beta_constraint": null, "moving_mean_initializer": {"class_name": "Zeros", "config": {}}, "gamma_initializer": {"class_name": "Ones", "config": {}}, "beta_regularizer": null, "axis": 3}}, {"name": "activation_5", "class_name": "Activation", "inbound_nodes": [[["bn2b_branch2a", 0, 0, {}]]], "config": {"name": "activation_5", "trainable": true, "activation": "relu"}}, {"name": "res2b_branch2b", "class_name": "Conv2D", "inbound_nodes": [[["activation_5", 0, 0, {}]]], "config": {"kernel_initializer": {"class_name": "VarianceScaling", "config": {"mode": "fan_avg", "seed": null, "scale": 1.0, "distribution": "uniform"}}, "data_format": "channels_last", "bias_initializer": {"class_name": "Zeros", "config": {}}, "dilation_rate": [1, 1], "padding": "same", "name": "res2b_branch2b", "use_bias": true, "bias_constraint": null, "kernel_size": [3, 3], "trainable": true, "activation": "linear", "kernel_constraint": null, "bias_regularizer": null, "kernel_regularizer": null, "filters": 64, "strides": [1, 1], "activity_regularizer": null}}, {"name": "bn2b_branch2b", "class_name": "BatchNormalization", "inbound_nodes": [[["res2b_branch2b", 0, 0, {}]]], "config": {"name": "bn2b_branch2b", "moving_variance_initializer": {"class_name": "Ones", "config": {}}, "epsilon": 0.001, "beta_initializer": {"class_name": "Zeros", "config": {}}, "gamma_regularizer": null, "scale": true, "center": true, "gamma_constraint": null, "momentum": 0.99, "trainable": true, "beta_constraint": null, "moving_mean_initializer": {"class_name": "Zeros", "config": {}}, "gamma_initializer": {"class_name": "Ones", "config": {}}, "beta_regularizer": null, "axis": 3}}, {"name": "activation_6", "class_name": "Activation", "inbound_nodes": [[["bn2b_branch2b", 0, 0, {}]]], "config": {"name": "activation_6", "trainable": true, "activation": "relu"}}, {"name": "res2b_branch2c", "class_name": "Conv2D", "inbound_nodes": [[["activation_6", 0, 0, {}]]], "config": {"kernel_initializer": {"class_name": "VarianceScaling", "config": {"mode": "fan_avg", "seed": null, "scale": 1.0, "distribution": "uniform"}}, "data_format": "channels_last", "bias_initializer": {"class_name": "Zeros", "config": {}}, "dilation_rate": [1, 1], "padding": "valid", "name": "res2b_branch2c", "use_bias": true, "bias_constraint": null, "kernel_size": [1, 1], "trainable": true, "activation": "linear", "kernel_constraint": null, "bias_regularizer": null, "kernel_regularizer": null, "filters": 256, "strides": [1, 1], "activity_regularizer": null}}, {"name": "bn2b_branch2c", "class_name": "BatchNormalization", "inbound_nodes": [[["res2b_branch2c", 0, 0, {}]]], "config": {"name": "bn2b_branch2c", "moving_variance_initializer": {"class_name": "Ones", "config": {}}, "epsilon": 0.001, "beta_initializer": {"class_name": "Zeros", "config": {}}, "gamma_regularizer": null, "scale": true, "center": true, "gamma_constraint": null, "momentum": 0.99, "trainable": true, "beta_constraint": null, "moving_mean_initializer": {"class_name": "Zeros", "config": {}}, "gamma_initializer": {"class_name": "Ones", "config": {}}, "beta_regularizer": null, "axis": 3}}, {"name": "add_2", "class_name": "Add", "inbound_nodes": [[["bn2b_branch2c", 0, 0, {}], ["activation_4", 0, 0, {}]]], "config": {"name": "add_2", "trainable": true}}, {"name": "activation_7", "class_name": "Activation", "inbound_nodes": [[["add_2", 0, 0, {}]]], "config": {"name": "activation_7", "trainable": true, "activation": "relu"}}, {"name": "res2c_branch2a", "class_name": "Conv2D", "inbound_nodes": [[["activation_7", 0, 0, {}]]], "config": {"kernel_initializer": {"class_name": "VarianceScaling", "config": {"mode": "fan_avg", "seed": null, "scale": 1.0, "distribution": "uniform"}}, "data_format": "channels_last", "bias_initializer": {"class_name": "Zeros", "config": {}}, "dilation_rate": [1, 1], "padding": "valid", "name": "res2c_branch2a", "use_bias": true, "bias_constraint": null, "kernel_size": [1, 1], "trainable": true, "activation": "linear", "kernel_constraint": null, "bias_regularizer": null, "kernel_regularizer": null, "filters": 64, "strides": [1, 1], "activity_regularizer": null}}, {"name": "bn2c_branch2a", "class_name": "BatchNormalization", "inbound_nodes": [[["res2c_branch2a", 0, 0, {}]]], "config": {"name": "bn2c_branch2a", "moving_variance_initializer": {"class_name": "Ones", "config": {}}, "epsilon": 0.001, "beta_initializer": {"class_name": "Zeros", "config": {}}, "gamma_regularizer": null, "scale": true, "center": true, "gamma_constraint": null, "momentum": 0.99, "trainable": true, "beta_constraint": null, "moving_mean_initializer": {"class_name": "Zeros", "config": {}}, "gamma_initializer": {"class_name": "Ones", "config": {}}, "beta_regularizer": null, "axis": 3}}, {"name": "activation_8", "class_name": "Activation", "inbound_nodes": [[["bn2c_branch2a", 0, 0, {}]]], "config": {"name": "activation_8", "trainable": true, "activation": "relu"}}, {"name": "res2c_branch2b", "class_name": "Conv2D", "inbound_nodes": [[["activation_8", 0, 0, {}]]], "config": {"kernel_initializer": {"class_name": "VarianceScaling", "config": {"mode": "fan_avg", "seed": null, "scale": 1.0, "distribution": "uniform"}}, "data_format": "channels_last", "bias_initializer": {"class_name": "Zeros", "config": {}}, "dilation_rate": [1, 1], "padding": "same", "name": "res2c_branch2b", "use_bias": true, "bias_constraint": null, "kernel_size": [3, 3], "trainable": true, "activation": "linear", "kernel_constraint": null, "bias_regularizer": null, "kernel_regularizer": null, "filters": 64, "strides": [1, 1], "activity_regularizer": null}}, {"name": "bn2c_branch2b", "class_name": "BatchNormalization", "inbound_nodes": [[["res2c_branch2b", 0, 0, {}]]], "config": {"name": "bn2c_branch2b", "moving_variance_initializer": {"class_name": "Ones", "config": {}}, "epsilon": 0.001, "beta_initializer": {"class_name": "Zeros", "config": {}}, "gamma_regularizer": null, "scale": true, "center": true, "gamma_constraint": null, "momentum": 0.99, "trainable": true, "beta_constraint": null, "moving_mean_initializer": {"class_name": "Zeros", "config": {}}, "gamma_initializer": {"class_name": "Ones", "config": {}}, "beta_regularizer": null, "axis": 3}}, {"name": "activation_9", "class_name": "Activation", "inbound_nodes": [[["bn2c_branch2b", 0, 0, {}]]], "config": {"name": "activation_9", "trainable": true, "activation": "relu"}}, {"name": "res2c_branch2c", "class_name": "Conv2D", "inbound_nodes": [[["activation_9", 0, 0, {}]]], "config": {"kernel_initializer": {"class_name": "VarianceScaling", "config": {"mode": "fan_avg", "seed": null, "scale": 1.0, "distribution": "uniform"}}, "data_format": "channels_last", "bias_initializer": {"class_name": "Zeros", "config": {}}, "dilation_rate": [1, 1], "padding": "valid", "name": "res2c_branch2c", "use_bias": true, "bias_constraint": null, "kernel_size": [1, 1], "trainable": true, "activation": "linear", "kernel_constraint": null, "bias_regularizer": null, "kernel_regularizer": null, "filters": 256, "strides": [1, 1], "activity_regularizer": null}}, {"name": "bn2c_branch2c", "class_name": "BatchNormalization", "inbound_nodes": [[["res2c_branch2c", 0, 0, {}]]], "config": {"name": "bn2c_branch2c", "moving_variance_initializer": {"class_name": "Ones", "config": {}}, "epsilon": 0.001, "beta_initializer": {"class_name": "Zeros", "config": {}}, "gamma_regularizer": null, "scale": true, "center": true, "gamma_constraint": null, "momentum": 0.99, "trainable": true, "beta_constraint": null, "moving_mean_initializer": {"class_name": "Zeros", "config": {}}, "gamma_initializer": {"class_name": "Ones", "config": {}}, "beta_regularizer": null, "axis": 3}}, {"name": "add_3", "class_name": "Add", "inbound_nodes": [[["bn2c_branch2c", 0, 0, {}], ["activation_7", 0, 0, {}]]], "config": {"name": "add_3", "trainable": true}}, {"name": "activation_10", "class_name": "Activation", "inbound_nodes": [[["add_3", 0, 0, {}]]], "config": {"name": "activation_10", "trainable": true, "activation": "relu"}}, {"name": "res3a_branch2a", "class_name": "Conv2D", "inbound_nodes": [[["activation_10", 0, 0, {}]]], "config": {"kernel_initializer": {"class_name": "VarianceScaling", "config": {"mode": "fan_avg", "seed": null, "scale": 1.0, "distribution": "uniform"}}, "data_format": "channels_last", "bias_initializer": {"class_name": "Zeros", "config": {}}, "dilation_rate": [1, 1], "padding": "valid", "name": "res3a_branch2a", "use_bias": true, "bias_constraint": null, "kernel_size": [1, 1], "trainable": true, "activation": "linear", "kernel_constraint": null, "bias_regularizer": null, "kernel_regularizer": null, "filters": 128, "strides": [2, 2], "activity_regularizer": null}}, {"name": "bn3a_branch2a", "class_name": "BatchNormalization", "inbound_nodes": [[["res3a_branch2a", 0, 0, {}]]], "config": {"name": "bn3a_branch2a", "moving_variance_initializer": {"class_name": "Ones", "config": {}}, "epsilon": 0.001, "beta_initializer": {"class_name": "Zeros", "config": {}}, "gamma_regularizer": null, "scale": true, "center": true, "gamma_constraint": null, "momentum": 0.99, "trainable": true, "beta_constraint": null, "moving_mean_initializer": {"class_name": "Zeros", "config": {}}, "gamma_initializer": {"class_name": "Ones", "config": {}}, "beta_regularizer": null, "axis": 3}}, {"name": "activation_11", "class_name": "Activation", "inbound_nodes": [[["bn3a_branch2a", 0, 0, {}]]], "config": {"name": "activation_11", "trainable": true, "activation": "relu"}}, {"name": "res3a_branch2b", "class_name": "Conv2D", "inbound_nodes": [[["activation_11", 0, 0, {}]]], "config": {"kernel_initializer": {"class_name": "VarianceScaling", "config": {"mode": "fan_avg", "seed": null, "scale": 1.0, "distribution": "uniform"}}, "data_format": "channels_last", "bias_initializer": {"class_name": "Zeros", "config": {}}, "dilation_rate": [1, 1], "padding": "same", "name": "res3a_branch2b", "use_bias": true, "bias_constraint": null, "kernel_size": [3, 3], "trainable": true, "activation": "linear", "kernel_constraint": null, "bias_regularizer": null, "kernel_regularizer": null, "filters": 128, "strides": [1, 1], "activity_regularizer": null}}, {"name": "bn3a_branch2b", "class_name": "BatchNormalization", "inbound_nodes": [[["res3a_branch2b", 0, 0, {}]]], "config": {"name": "bn3a_branch2b", "moving_variance_initializer": {"class_name": "Ones", "config": {}}, "epsilon": 0.001, "beta_initializer": {"class_name": "Zeros", "config": {}}, "gamma_regularizer": null, "scale": true, "center": true, "gamma_constraint": null, "momentum": 0.99, "trainable": true, "beta_constraint": null, "moving_mean_initializer": {"class_name": "Zeros", "config": {}}, "gamma_initializer": {"class_name": "Ones", "config": {}}, "beta_regularizer": null, "axis": 3}}, {"name": "activation_12", "class_name": "Activation", "inbound_nodes": [[["bn3a_branch2b", 0, 0, {}]]], "config": {"name": "activation_12", "trainable": true, "activation": "relu"}}, {"name": "res3a_branch2c", "class_name": "Conv2D", "inbound_nodes": [[["activation_12", 0, 0, {}]]], "config": {"kernel_initializer": {"class_name": "VarianceScaling", "config": {"mode": "fan_avg", "seed": null, "scale": 1.0, "distribution": "uniform"}}, "data_format": "channels_last", "bias_initializer": {"class_name": "Zeros", "config": {}}, "dilation_rate": [1, 1], "padding": "valid", "name": "res3a_branch2c", "use_bias": true, "bias_constraint": null, "kernel_size": [1, 1], "trainable": true, "activation": "linear", "kernel_constraint": null, "bias_regularizer": null, "kernel_regularizer": null, "filters": 512, "strides": [1, 1], "activity_regularizer": null}}, {"name": "res3a_branch1", "class_name": "Conv2D", "inbound_nodes": [[["activation_10", 0, 0, {}]]], "config": {"kernel_initializer": {"class_name": "VarianceScaling", "config": {"mode": "fan_avg", "seed": null, "scale": 1.0, "distribution": "uniform"}}, "data_format": "channels_last", "bias_initializer": {"class_name": "Zeros", "config": {}}, "dilation_rate": [1, 1], "padding": "valid", "name": "res3a_branch1", "use_bias": true, "bias_constraint": null, "kernel_size": [1, 1], "trainable": true, "activation": "linear", "kernel_constraint": null, "bias_regularizer": null, "kernel_regularizer": null, "filters": 512, "strides": [2, 2], "activity_regularizer": null}}, {"name": "bn3a_branch2c", "class_name": "BatchNormalization", "inbound_nodes": [[["res3a_branch2c", 0, 0, {}]]], "config": {"name": "bn3a_branch2c", "moving_variance_initializer": {"class_name": "Ones", "config": {}}, "epsilon": 0.001, "beta_initializer": {"class_name": "Zeros", "config": {}}, "gamma_regularizer": null, "scale": true, "center": true, "gamma_constraint": null, "momentum": 0.99, "trainable": true, "beta_constraint": null, "moving_mean_initializer": {"class_name": "Zeros", "config": {}}, "gamma_initializer": {"class_name": "Ones", "config": {}}, "beta_regularizer": null, "axis": 3}}, {"name": "bn3a_branch1", "class_name": "BatchNormalization", "inbound_nodes": [[["res3a_branch1", 0, 0, {}]]], "config": {"name": "bn3a_branch1", "moving_variance_initializer": {"class_name": "Ones", "config": {}}, "epsilon": 0.001, "beta_initializer": {"class_name": "Zeros", "config": {}}, "gamma_regularizer": null, "scale": true, "center": true, "gamma_constraint": null, "momentum": 0.99, "trainable": true, "beta_constraint": null, "moving_mean_initializer": {"class_name": "Zeros", "config": {}}, "gamma_initializer": {"class_name": "Ones", "config": {}}, "beta_regularizer": null, "axis": 3}}, {"name": "add_4", "class_name": "Add", "inbound_nodes": [[["bn3a_branch2c", 0, 0, {}], ["bn3a_branch1", 0, 0, {}]]], "config": {"name": "add_4", "trainable": true}}, {"name": "activation_13", "class_name": "Activation", "inbound_nodes": [[["add_4", 0, 0, {}]]], "config": {"name": "activation_13", "trainable": true, "activation": "relu"}}, {"name": "res3b_branch2a", "class_name": "Conv2D", "inbound_nodes": [[["activation_13", 0, 0, {}]]], "config": {"kernel_initializer": {"class_name": "VarianceScaling", "config": {"mode": "fan_avg", "seed": null, "scale": 1.0, "distribution": "uniform"}}, "data_format": "channels_last", "bias_initializer": {"class_name": "Zeros", "config": {}}, "dilation_rate": [1, 1], "padding": "valid", "name": "res3b_branch2a", "use_bias": true, "bias_constraint": null, "kernel_size": [1, 1], "trainable": true, "activation": "linear", "kernel_constraint": null, "bias_regularizer": null, "kernel_regularizer": null, "filters": 128, "strides": [1, 1], "activity_regularizer": null}}, {"name": "bn3b_branch2a", "class_name": "BatchNormalization", "inbound_nodes": [[["res3b_branch2a", 0, 0, {}]]], "config": {"name": "bn3b_branch2a", "moving_variance_initializer": {"class_name": "Ones", "config": {}}, "epsilon": 0.001, "beta_initializer": {"class_name": "Zeros", "config": {}}, "gamma_regularizer": null, "scale": true, "center": true, "gamma_constraint": null, "momentum": 0.99, "trainable": true, "beta_constraint": null, "moving_mean_initializer": {"class_name": "Zeros", "config": {}}, "gamma_initializer": {"class_name": "Ones", "config": {}}, "beta_regularizer": null, "axis": 3}}, {"name": "activation_14", "class_name": "Activation", "inbound_nodes": [[["bn3b_branch2a", 0, 0, {}]]], "config": {"name": "activation_14", "trainable": true, "activation": "relu"}}, {"name": "res3b_branch2b", "class_name": "Conv2D", "inbound_nodes": [[["activation_14", 0, 0, {}]]], "config": {"kernel_initializer": {"class_name": "VarianceScaling", "config": {"mode": "fan_avg", "seed": null, "scale": 1.0, "distribution": "uniform"}}, "data_format": "channels_last", "bias_initializer": {"class_name": "Zeros", "config": {}}, "dilation_rate": [1, 1], "padding": "same", "name": "res3b_branch2b", "use_bias": true, "bias_constraint": null, "kernel_size": [3, 3], "trainable": true, "activation": "linear", "kernel_constraint": null, "bias_regularizer": null, "kernel_regularizer": null, "filters": 128, "strides": [1, 1], "activity_regularizer": null}}, {"name": "bn3b_branch2b", "class_name": "BatchNormalization", "inbound_nodes": [[["res3b_branch2b", 0, 0, {}]]], "config": {"name": "bn3b_branch2b", "moving_variance_initializer": {"class_name": "Ones", "config": {}}, "epsilon": 0.001, "beta_initializer": {"class_name": "Zeros", "config": {}}, "gamma_regularizer": null, "scale": true, "center": true, "gamma_constraint": null, "momentum": 0.99, "trainable": true, "beta_constraint": null, "moving_mean_initializer": {"class_name": "Zeros", "config": {}}, "gamma_initializer": {"class_name": "Ones", "config": {}}, "beta_regularizer": null, "axis": 3}}, {"name": "activation_15", "class_name": "Activation", "inbound_nodes": [[["bn3b_branch2b", 0, 0, {}]]], "config": {"name": "activation_15", "trainable": true, "activation": "relu"}}, {"name": "res3b_branch2c", "class_name": "Conv2D", "inbound_nodes": [[["activation_15", 0, 0, {}]]], "config": {"kernel_initializer": {"class_name": "VarianceScaling", "config": {"mode": "fan_avg", "seed": null, "scale": 1.0, "distribution": "uniform"}}, "data_format": "channels_last", "bias_initializer": {"class_name": "Zeros", "config": {}}, "dilation_rate": [1, 1], "padding": "valid", "name": "res3b_branch2c", "use_bias": true, "bias_constraint": null, "kernel_size": [1, 1], "trainable": true, "activation": "linear", "kernel_constraint": null, "bias_regularizer": null, "kernel_regularizer": null, "filters": 512, "strides": [1, 1], "activity_regularizer": null}}, {"name": "bn3b_branch2c", "class_name": "BatchNormalization", "inbound_nodes": [[["res3b_branch2c", 0, 0, {}]]], "config": {"name": "bn3b_branch2c", "moving_variance_initializer": {"class_name": "Ones", "config": {}}, "epsilon": 0.001, "beta_initializer": {"class_name": "Zeros", "config": {}}, "gamma_regularizer": null, "scale": true, "center": true, "gamma_constraint": null, "momentum": 0.99, "trainable": true, "beta_constraint": null, "moving_mean_initializer": {"class_name": "Zeros", "config": {}}, "gamma_initializer": {"class_name": "Ones", "config": {}}, "beta_regularizer": null, "axis": 3}}, {"name": "add_5", "class_name": "Add", "inbound_nodes": [[["bn3b_branch2c", 0, 0, {}], ["activation_13", 0, 0, {}]]], "config": {"name": "add_5", "trainable": true}}, {"name": "activation_16", "class_name": "Activation", "inbound_nodes": [[["add_5", 0, 0, {}]]], "config": {"name": "activation_16", "trainable": true, "activation": "relu"}}, {"name": "res3c_branch2a", "class_name": "Conv2D", "inbound_nodes": [[["activation_16", 0, 0, {}]]], "config": {"kernel_initializer": {"class_name": "VarianceScaling", "config": {"mode": "fan_avg", "seed": null, "scale": 1.0, "distribution": "uniform"}}, "data_format": "channels_last", "bias_initializer": {"class_name": "Zeros", "config": {}}, "dilation_rate": [1, 1], "padding": "valid", "name": "res3c_branch2a", "use_bias": true, "bias_constraint": null, "kernel_size": [1, 1], "trainable": true, "activation": "linear", "kernel_constraint": null, "bias_regularizer": null, "kernel_regularizer": null, "filters": 128, "strides": [1, 1], "activity_regularizer": null}}, {"name": "bn3c_branch2a", "class_name": "BatchNormalization", "inbound_nodes": [[["res3c_branch2a", 0, 0, {}]]], "config": {"name": "bn3c_branch2a", "moving_variance_initializer": {"class_name": "Ones", "config": {}}, "epsilon": 0.001, "beta_initializer": {"class_name": "Zeros", "config": {}}, "gamma_regularizer": null, "scale": true, "center": true, "gamma_constraint": null, "momentum": 0.99, "trainable": true, "beta_constraint": null, "moving_mean_initializer": {"class_name": "Zeros", "config": {}}, "gamma_initializer": {"class_name": "Ones", "config": {}}, "beta_regularizer": null, "axis": 3}}, {"name": "activation_17", "class_name": "Activation", "inbound_nodes": [[["bn3c_branch2a", 0, 0, {}]]], "config": {"name": "activation_17", "trainable": true, "activation": "relu"}}, {"name": "res3c_branch2b", "class_name": "Conv2D", "inbound_nodes": [[["activation_17", 0, 0, {}]]], "config": {"kernel_initializer": {"class_name": "VarianceScaling", "config": {"mode": "fan_avg", "seed": null, "scale": 1.0, "distribution": "uniform"}}, "data_format": "channels_last", "bias_initializer": {"class_name": "Zeros", "config": {}}, "dilation_rate": [1, 1], "padding": "same", "name": "res3c_branch2b", "use_bias": true, "bias_constraint": null, "kernel_size": [3, 3], "trainable": true, "activation": "linear", "kernel_constraint": null, "bias_regularizer": null, "kernel_regularizer": null, "filters": 128, "strides": [1, 1], "activity_regularizer": null}}, {"name": "bn3c_branch2b", "class_name": "BatchNormalization", "inbound_nodes": [[["res3c_branch2b", 0, 0, {}]]], "config": {"name": "bn3c_branch2b", "moving_variance_initializer": {"class_name": "Ones", "config": {}}, "epsilon": 0.001, "beta_initializer": {"class_name": "Zeros", "config": {}}, "gamma_regularizer": null, "scale": true, "center": true, "gamma_constraint": null, "momentum": 0.99, "trainable": true, "beta_constraint": null, "moving_mean_initializer": {"class_name": "Zeros", "config": {}}, "gamma_initializer": {"class_name": "Ones", "config": {}}, "beta_regularizer": null, "axis": 3}}, {"name": "activation_18", "class_name": "Activation", "inbound_nodes": [[["bn3c_branch2b", 0, 0, {}]]], "config": {"name": "activation_18", "trainable": true, "activation": "relu"}}, {"name": "res3c_branch2c", "class_name": "Conv2D", "inbound_nodes": [[["activation_18", 0, 0, {}]]], "config": {"kernel_initializer": {"class_name": "VarianceScaling", "config": {"mode": "fan_avg", "seed": null, "scale": 1.0, "distribution": "uniform"}}, "data_format": "channels_last", "bias_initializer": {"class_name": "Zeros", "config": {}}, "dilation_rate": [1, 1], "padding": "valid", "name": "res3c_branch2c", "use_bias": true, "bias_constraint": null, "kernel_size": [1, 1], "trainable": true, "activation": "linear", "kernel_constraint": null, "bias_regularizer": null, "kernel_regularizer": null, "filters": 512, "strides": [1, 1], "activity_regularizer": null}}, {"name": "bn3c_branch2c", "class_name": "BatchNormalization", "inbound_nodes": [[["res3c_branch2c", 0, 0, {}]]], "config": {"name": "bn3c_branch2c", "moving_variance_initializer": {"class_name": "Ones", "config": {}}, "epsilon": 0.001, "beta_initializer": {"class_name": "Zeros", "config": {}}, "gamma_regularizer": null, "scale": true, "center": true, "gamma_constraint": null, "momentum": 0.99, "trainable": true, "beta_constraint": null, "moving_mean_initializer": {"class_name": "Zeros", "config": {}}, "gamma_initializer": {"class_name": "Ones", "config": {}}, "beta_regularizer": null, "axis": 3}}, {"name": "add_6", "class_name": "Add", "inbound_nodes": [[["bn3c_branch2c", 0, 0, {}], ["activation_16", 0, 0, {}]]], "config": {"name": "add_6", "trainable": true}}, {"name": "activation_19", "class_name": "Activation", "inbound_nodes": [[["add_6", 0, 0, {}]]], "config": {"name": "activation_19", "trainable": true, "activation": "relu"}}, {"name": "res3d_branch2a", "class_name": "Conv2D", "inbound_nodes": [[["activation_19", 0, 0, {}]]], "config": {"kernel_initializer": {"class_name": "VarianceScaling", "config": {"mode": "fan_avg", "seed": null, "scale": 1.0, "distribution": "uniform"}}, "data_format": "channels_last", "bias_initializer": {"class_name": "Zeros", "config": {}}, "dilation_rate": [1, 1], "padding": "valid", "name": "res3d_branch2a", "use_bias": true, "bias_constraint": null, "kernel_size": [1, 1], "trainable": true, "activation": "linear", "kernel_constraint": null, "bias_regularizer": null, "kernel_regularizer": null, "filters": 128, "strides": [1, 1], "activity_regularizer": null}}, {"name": "bn3d_branch2a", "class_name": "BatchNormalization", "inbound_nodes": [[["res3d_branch2a", 0, 0, {}]]], "config": {"name": "bn3d_branch2a", "moving_variance_initializer": {"class_name": "Ones", "config": {}}, "epsilon": 0.001, "beta_initializer": {"class_name": "Zeros", "config": {}}, "gamma_regularizer": null, "scale": true, "center": true, "gamma_constraint": null, "momentum": 0.99, "trainable": true, "beta_constraint": null, "moving_mean_initializer": {"class_name": "Zeros", "config": {}}, "gamma_initializer": {"class_name": "Ones", "config": {}}, "beta_regularizer": null, "axis": 3}}, {"name": "activation_20", "class_name": "Activation", "inbound_nodes": [[["bn3d_branch2a", 0, 0, {}]]], "config": {"name": "activation_20", "trainable": true, "activation": "relu"}}, {"name": "res3d_branch2b", "class_name": "Conv2D", "inbound_nodes": [[["activation_20", 0, 0, {}]]], "config": {"kernel_initializer": {"class_name": "VarianceScaling", "config": {"mode": "fan_avg", "seed": null, "scale": 1.0, "distribution": "uniform"}}, "data_format": "channels_last", "bias_initializer": {"class_name": "Zeros", "config": {}}, "dilation_rate": [1, 1], "padding": "same", "name": "res3d_branch2b", "use_bias": true, "bias_constraint": null, "kernel_size": [3, 3], "trainable": true, "activation": "linear", "kernel_constraint": null, "bias_regularizer": null, "kernel_regularizer": null, "filters": 128, "strides": [1, 1], "activity_regularizer": null}}, {"name": "bn3d_branch2b", "class_name": "BatchNormalization", "inbound_nodes": [[["res3d_branch2b", 0, 0, {}]]], "config": {"name": "bn3d_branch2b", "moving_variance_initializer": {"class_name": "Ones", "config": {}}, "epsilon": 0.001, "beta_initializer": {"class_name": "Zeros", "config": {}}, "gamma_regularizer": null, "scale": true, "center": true, "gamma_constraint": null, "momentum": 0.99, "trainable": true, "beta_constraint": null, "moving_mean_initializer": {"class_name": "Zeros", "config": {}}, "gamma_initializer": {"class_name": "Ones", "config": {}}, "beta_regularizer": null, "axis": 3}}, {"name": "activation_21", "class_name": "Activation", "inbound_nodes": [[["bn3d_branch2b", 0, 0, {}]]], "config": {"name": "activation_21", "trainable": true, "activation": "relu"}}, {"name": "res3d_branch2c", "class_name": "Conv2D", "inbound_nodes": [[["activation_21", 0, 0, {}]]], "config": {"kernel_initializer": {"class_name": "VarianceScaling", "config": {"mode": "fan_avg", "seed": null, "scale": 1.0, "distribution": "uniform"}}, "data_format": "channels_last", "bias_initializer": {"class_name": "Zeros", "config": {}}, "dilation_rate": [1, 1], "padding": "valid", "name": "res3d_branch2c", "use_bias": true, "bias_constraint": null, "kernel_size": [1, 1], "trainable": true, "activation": "linear", "kernel_constraint": null, "bias_regularizer": null, "kernel_regularizer": null, "filters": 512, "strides": [1, 1], "activity_regularizer": null}}, {"name": "bn3d_branch2c", "class_name": "BatchNormalization", "inbound_nodes": [[["res3d_branch2c", 0, 0, {}]]], "config": {"name": "bn3d_branch2c", "moving_variance_initializer": {"class_name": "Ones", "config": {}}, "epsilon": 0.001, "beta_initializer": {"class_name": "Zeros", "config": {}}, "gamma_regularizer": null, "scale": true, "center": true, "gamma_constraint": null, "momentum": 0.99, "trainable": true, "beta_constraint": null, "moving_mean_initializer": {"class_name": "Zeros", "config": {}}, "gamma_initializer": {"class_name": "Ones", "config": {}}, "beta_regularizer": null, "axis": 3}}, {"name": "add_7", "class_name": "Add", "inbound_nodes": [[["bn3d_branch2c", 0, 0, {}], ["activation_19", 0, 0, {}]]], "config": {"name": "add_7", "trainable": true}}, {"name": "activation_22", "class_name": "Activation", "inbound_nodes": [[["add_7", 0, 0, {}]]], "config": {"name": "activation_22", "trainable": true, "activation": "relu"}}, {"name": "res4a_branch2a", "class_name": "Conv2D", "inbound_nodes": [[["activation_22", 0, 0, {}]]], "config": {"kernel_initializer": {"class_name": "VarianceScaling", "config": {"mode": "fan_avg", "seed": null, "scale": 1.0, "distribution": "uniform"}}, "data_format": "channels_last", "bias_initializer": {"class_name": "Zeros", "config": {}}, "dilation_rate": [1, 1], "padding": "valid", "name": "res4a_branch2a", "use_bias": true, "bias_constraint": null, "kernel_size": [1, 1], "trainable": true, "activation": "linear", "kernel_constraint": null, "bias_regularizer": null, "kernel_regularizer": null, "filters": 256, "strides": [2, 2], "activity_regularizer": null}}, {"name": "bn4a_branch2a", "class_name": "BatchNormalization", "inbound_nodes": [[["res4a_branch2a", 0, 0, {}]]], "config": {"name": "bn4a_branch2a", "moving_variance_initializer": {"class_name": "Ones", "config": {}}, "epsilon": 0.001, "beta_initializer": {"class_name": "Zeros", "config": {}}, "gamma_regularizer": null, "scale": true, "center": true, "gamma_constraint": null, "momentum": 0.99, "trainable": true, "beta_constraint": null, "moving_mean_initializer": {"class_name": "Zeros", "config": {}}, "gamma_initializer": {"class_name": "Ones", "config": {}}, "beta_regularizer": null, "axis": 3}}, {"name": "activation_23", "class_name": "Activation", "inbound_nodes": [[["bn4a_branch2a", 0, 0, {}]]], "config": {"name": "activation_23", "trainable": true, "activation": "relu"}}, {"name": "res4a_branch2b", "class_name": "Conv2D", "inbound_nodes": [[["activation_23", 0, 0, {}]]], "config": {"kernel_initializer": {"class_name": "VarianceScaling", "config": {"mode": "fan_avg", "seed": null, "scale": 1.0, "distribution": "uniform"}}, "data_format": "channels_last", "bias_initializer": {"class_name": "Zeros", "config": {}}, "dilation_rate": [1, 1], "padding": "same", "name": "res4a_branch2b", "use_bias": true, "bias_constraint": null, "kernel_size": [3, 3], "trainable": true, "activation": "linear", "kernel_constraint": null, "bias_regularizer": null, "kernel_regularizer": null, "filters": 256, "strides": [1, 1], "activity_regularizer": null}}, {"name": "bn4a_branch2b", "class_name": "BatchNormalization", "inbound_nodes": [[["res4a_branch2b", 0, 0, {}]]], "config": {"name": "bn4a_branch2b", "moving_variance_initializer": {"class_name": "Ones", "config": {}}, "epsilon": 0.001, "beta_initializer": {"class_name": "Zeros", "config": {}}, "gamma_regularizer": null, "scale": true, "center": true, "gamma_constraint": null, "momentum": 0.99, "trainable": true, "beta_constraint": null, "moving_mean_initializer": {"class_name": "Zeros", "config": {}}, "gamma_initializer": {"class_name": "Ones", "config": {}}, "beta_regularizer": null, "axis": 3}}, {"name": "activation_24", "class_name": "Activation", "inbound_nodes": [[["bn4a_branch2b", 0, 0, {}]]], "config": {"name": "activation_24", "trainable": true, "activation": "relu"}}, {"name": "res4a_branch2c", "class_name": "Conv2D", "inbound_nodes": [[["activation_24", 0, 0, {}]]], "config": {"kernel_initializer": {"class_name": "VarianceScaling", "config": {"mode": "fan_avg", "seed": null, "scale": 1.0, "distribution": "uniform"}}, "data_format": "channels_last", "bias_initializer": {"class_name": "Zeros", "config": {}}, "dilation_rate": [1, 1], "padding": "valid", "name": "res4a_branch2c", "use_bias": true, "bias_constraint": null, "kernel_size": [1, 1], "trainable": true, "activation": "linear", "kernel_constraint": null, "bias_regularizer": null, "kernel_regularizer": null, "filters": 1024, "strides": [1, 1], "activity_regularizer": null}}, {"name": "res4a_branch1", "class_name": "Conv2D", "inbound_nodes": [[["activation_22", 0, 0, {}]]], "config": {"kernel_initializer": {"class_name": "VarianceScaling", "config": {"mode": "fan_avg", "seed": null, "scale": 1.0, "distribution": "uniform"}}, "data_format": "channels_last", "bias_initializer": {"class_name": "Zeros", "config": {}}, "dilation_rate": [1, 1], "padding": "valid", "name": "res4a_branch1", "use_bias": true, "bias_constraint": null, "kernel_size": [1, 1], "trainable": true, "activation": "linear", "kernel_constraint": null, "bias_regularizer": null, "kernel_regularizer": null, "filters": 1024, "strides": [2, 2], "activity_regularizer": null}}, {"name": "bn4a_branch2c", "class_name": "BatchNormalization", "inbound_nodes": [[["res4a_branch2c", 0, 0, {}]]], "config": {"name": "bn4a_branch2c", "moving_variance_initializer": {"class_name": "Ones", "config": {}}, "epsilon": 0.001, "beta_initializer": {"class_name": "Zeros", "config": {}}, "gamma_regularizer": null, "scale": true, "center": true, "gamma_constraint": null, "momentum": 0.99, "trainable": true, "beta_constraint": null, "moving_mean_initializer": {"class_name": "Zeros", "config": {}}, "gamma_initializer": {"class_name": "Ones", "config": {}}, "beta_regularizer": null, "axis": 3}}, {"name": "bn4a_branch1", "class_name": "BatchNormalization", "inbound_nodes": [[["res4a_branch1", 0, 0, {}]]], "config": {"name": "bn4a_branch1", "moving_variance_initializer": {"class_name": "Ones", "config": {}}, "epsilon": 0.001, "beta_initializer": {"class_name": "Zeros", "config": {}}, "gamma_regularizer": null, "scale": true, "center": true, "gamma_constraint": null, "momentum": 0.99, "trainable": true, "beta_constraint": null, "moving_mean_initializer": {"class_name": "Zeros", "config": {}}, "gamma_initializer": {"class_name": "Ones", "config": {}}, "beta_regularizer": null, "axis": 3}}, {"name": "add_8", "class_name": "Add", "inbound_nodes": [[["bn4a_branch2c", 0, 0, {}], ["bn4a_branch1", 0, 0, {}]]], "config": {"name": "add_8", "trainable": true}}, {"name": "activation_25", "class_name": "Activation", "inbound_nodes": [[["add_8", 0, 0, {}]]], "config": {"name": "activation_25", "trainable": true, "activation": "relu"}}, {"name": "res4b_branch2a", "class_name": "Conv2D", "inbound_nodes": [[["activation_25", 0, 0, {}]]], "config": {"kernel_initializer": {"class_name": "VarianceScaling", "config": {"mode": "fan_avg", "seed": null, "scale": 1.0, "distribution": "uniform"}}, "data_format": "channels_last", "bias_initializer": {"class_name": "Zeros", "config": {}}, "dilation_rate": [1, 1], "padding": "valid", "name": "res4b_branch2a", "use_bias": true, "bias_constraint": null, "kernel_size": [1, 1], "trainable": true, "activation": "linear", "kernel_constraint": null, "bias_regularizer": null, "kernel_regularizer": null, "filters": 256, "strides": [1, 1], "activity_regularizer": null}}, {"name": "bn4b_branch2a", "class_name": "BatchNormalization", "inbound_nodes": [[["res4b_branch2a", 0, 0, {}]]], "config": {"name": "bn4b_branch2a", "moving_variance_initializer": {"class_name": "Ones", "config": {}}, "epsilon": 0.001, "beta_initializer": {"class_name": "Zeros", "config": {}}, "gamma_regularizer": null, "scale": true, "center": true, "gamma_constraint": null, "momentum": 0.99, "trainable": true, "beta_constraint": null, "moving_mean_initializer": {"class_name": "Zeros", "config": {}}, "gamma_initializer": {"class_name": "Ones", "config": {}}, "beta_regularizer": null, "axis": 3}}, {"name": "activation_26", "class_name": "Activation", "inbound_nodes": [[["bn4b_branch2a", 0, 0, {}]]], "config": {"name": "activation_26", "trainable": true, "activation": "relu"}}, {"name": "res4b_branch2b", "class_name": "Conv2D", "inbound_nodes": [[["activation_26", 0, 0, {}]]], "config": {"kernel_initializer": {"class_name": "VarianceScaling", "config": {"mode": "fan_avg", "seed": null, "scale": 1.0, "distribution": "uniform"}}, "data_format": "channels_last", "bias_initializer": {"class_name": "Zeros", "config": {}}, "dilation_rate": [1, 1], "padding": "same", "name": "res4b_branch2b", "use_bias": true, "bias_constraint": null, "kernel_size": [3, 3], "trainable": true, "activation": "linear", "kernel_constraint": null, "bias_regularizer": null, "kernel_regularizer": null, "filters": 256, "strides": [1, 1], "activity_regularizer": null}}, {"name": "bn4b_branch2b", "class_name": "BatchNormalization", "inbound_nodes": [[["res4b_branch2b", 0, 0, {}]]], "config": {"name": "bn4b_branch2b", "moving_variance_initializer": {"class_name": "Ones", "config": {}}, "epsilon": 0.001, "beta_initializer": {"class_name": "Zeros", "config": {}}, "gamma_regularizer": null, "scale": true, "center": true, "gamma_constraint": null, "momentum": 0.99, "trainable": true, "beta_constraint": null, "moving_mean_initializer": {"class_name": "Zeros", "config": {}}, "gamma_initializer": {"class_name": "Ones", "config": {}}, "beta_regularizer": null, "axis": 3}}, {"name": "activation_27", "class_name": "Activation", "inbound_nodes": [[["bn4b_branch2b", 0, 0, {}]]], "config": {"name": "activation_27", "trainable": true, "activation": "relu"}}, {"name": "res4b_branch2c", "class_name": "Conv2D", "inbound_nodes": [[["activation_27", 0, 0, {}]]], "config": {"kernel_initializer": {"class_name": "VarianceScaling", "config": {"mode": "fan_avg", "seed": null, "scale": 1.0, "distribution": "uniform"}}, "data_format": "channels_last", "bias_initializer": {"class_name": "Zeros", "config": {}}, "dilation_rate": [1, 1], "padding": "valid", "name": "res4b_branch2c", "use_bias": true, "bias_constraint": null, "kernel_size": [1, 1], "trainable": true, "activation": "linear", "kernel_constraint": null, "bias_regularizer": null, "kernel_regularizer": null, "filters": 1024, "strides": [1, 1], "activity_regularizer": null}}, {"name": "bn4b_branch2c", "class_name": "BatchNormalization", "inbound_nodes": [[["res4b_branch2c", 0, 0, {}]]], "config": {"name": "bn4b_branch2c", "moving_variance_initializer": {"class_name": "Ones", "config": {}}, "epsilon": 0.001, "beta_initializer": {"class_name": "Zeros", "config": {}}, "gamma_regularizer": null, "scale": true, "center": true, "gamma_constraint": null, "momentum": 0.99, "trainable": true, "beta_constraint": null, "moving_mean_initializer": {"class_name": "Zeros", "config": {}}, "gamma_initializer": {"class_name": "Ones", "config": {}}, "beta_regularizer": null, "axis": 3}}, {"name": "add_9", "class_name": "Add", "inbound_nodes": [[["bn4b_branch2c", 0, 0, {}], ["activation_25", 0, 0, {}]]], "config": {"name": "add_9", "trainable": true}}, {"name": "activation_28", "class_name": "Activation", "inbound_nodes": [[["add_9", 0, 0, {}]]], "config": {"name": "activation_28", "trainable": true, "activation": "relu"}}, {"name": "res4c_branch2a", "class_name": "Conv2D", "inbound_nodes": [[["activation_28", 0, 0, {}]]], "config": {"kernel_initializer": {"class_name": "VarianceScaling", "config": {"mode": "fan_avg", "seed": null, "scale": 1.0, "distribution": "uniform"}}, "data_format": "channels_last", "bias_initializer": {"class_name": "Zeros", "config": {}}, "dilation_rate": [1, 1], "padding": "valid", "name": "res4c_branch2a", "use_bias": true, "bias_constraint": null, "kernel_size": [1, 1], "trainable": true, "activation": "linear", "kernel_constraint": null, "bias_regularizer": null, "kernel_regularizer": null, "filters": 256, "strides": [1, 1], "activity_regularizer": null}}, {"name": "bn4c_branch2a", "class_name": "BatchNormalization", "inbound_nodes": [[["res4c_branch2a", 0, 0, {}]]], "config": {"name": "bn4c_branch2a", "moving_variance_initializer": {"class_name": "Ones", "config": {}}, "epsilon": 0.001, "beta_initializer": {"class_name": "Zeros", "config": {}}, "gamma_regularizer": null, "scale": true, "center": true, "gamma_constraint": null, "momentum": 0.99, "trainable": true, "beta_constraint": null, "moving_mean_initializer": {"class_name": "Zeros", "config": {}}, "gamma_initializer": {"class_name": "Ones", "config": {}}, "beta_regularizer": null, "axis": 3}}, {"name": "activation_29", "class_name": "Activation", "inbound_nodes": [[["bn4c_branch2a", 0, 0, {}]]], "config": {"name": "activation_29", "trainable": true, "activation": "relu"}}, {"name": "res4c_branch2b", "class_name": "Conv2D", "inbound_nodes": [[["activation_29", 0, 0, {}]]], "config": {"kernel_initializer": {"class_name": "VarianceScaling", "config": {"mode": "fan_avg", "seed": null, "scale": 1.0, "distribution": "uniform"}}, "data_format": "channels_last", "bias_initializer": {"class_name": "Zeros", "config": {}}, "dilation_rate": [1, 1], "padding": "same", "name": "res4c_branch2b", "use_bias": true, "bias_constraint": null, "kernel_size": [3, 3], "trainable": true, "activation": "linear", "kernel_constraint": null, "bias_regularizer": null, "kernel_regularizer": null, "filters": 256, "strides": [1, 1], "activity_regularizer": null}}, {"name": "bn4c_branch2b", "class_name": "BatchNormalization", "inbound_nodes": [[["res4c_branch2b", 0, 0, {}]]], "config": {"name": "bn4c_branch2b", "moving_variance_initializer": {"class_name": "Ones", "config": {}}, "epsilon": 0.001, "beta_initializer": {"class_name": "Zeros", "config": {}}, "gamma_regularizer": null, "scale": true, "center": true, "gamma_constraint": null, "momentum": 0.99, "trainable": true, "beta_constraint": null, "moving_mean_initializer": {"class_name": "Zeros", "config": {}}, "gamma_initializer": {"class_name": "Ones", "config": {}}, "beta_regularizer": null, "axis": 3}}, {"name": "activation_30", "class_name": "Activation", "inbound_nodes": [[["bn4c_branch2b", 0, 0, {}]]], "config": {"name": "activation_30", "trainable": true, "activation": "relu"}}, {"name": "res4c_branch2c", "class_name": "Conv2D", "inbound_nodes": [[["activation_30", 0, 0, {}]]], "config": {"kernel_initializer": {"class_name": "VarianceScaling", "config": {"mode": "fan_avg", "seed": null, "scale": 1.0, "distribution": "uniform"}}, "data_format": "channels_last", "bias_initializer": {"class_name": "Zeros", "config": {}}, "dilation_rate": [1, 1], "padding": "valid", "name": "res4c_branch2c", "use_bias": true, "bias_constraint": null, "kernel_size": [1, 1], "trainable": true, "activation": "linear", "kernel_constraint": null, "bias_regularizer": null, "kernel_regularizer": null, "filters": 1024, "strides": [1, 1], "activity_regularizer": null}}, {"name": "bn4c_branch2c", "class_name": "BatchNormalization", "inbound_nodes": [[["res4c_branch2c", 0, 0, {}]]], "config": {"name": "bn4c_branch2c", "moving_variance_initializer": {"class_name": "Ones", "config": {}}, "epsilon": 0.001, "beta_initializer": {"class_name": "Zeros", "config": {}}, "gamma_regularizer": null, "scale": true, "center": true, "gamma_constraint": null, "momentum": 0.99, "trainable": true, "beta_constraint": null, "moving_mean_initializer": {"class_name": "Zeros", "config": {}}, "gamma_initializer": {"class_name": "Ones", "config": {}}, "beta_regularizer": null, "axis": 3}}, {"name": "add_10", "class_name": "Add", "inbound_nodes": [[["bn4c_branch2c", 0, 0, {}], ["activation_28", 0, 0, {}]]], "config": {"name": "add_10", "trainable": true}}, {"name": "activation_31", "class_name": "Activation", "inbound_nodes": [[["add_10", 0, 0, {}]]], "config": {"name": "activation_31", "trainable": true, "activation": "relu"}}, {"name": "res4d_branch2a", "class_name": "Conv2D", "inbound_nodes": [[["activation_31", 0, 0, {}]]], "config": {"kernel_initializer": {"class_name": "VarianceScaling", "config": {"mode": "fan_avg", "seed": null, "scale": 1.0, "distribution": "uniform"}}, "data_format": "channels_last", "bias_initializer": {"class_name": "Zeros", "config": {}}, "dilation_rate": [1, 1], "padding": "valid", "name": "res4d_branch2a", "use_bias": true, "bias_constraint": null, "kernel_size": [1, 1], "trainable": true, "activation": "linear", "kernel_constraint": null, "bias_regularizer": null, "kernel_regularizer": null, "filters": 256, "strides": [1, 1], "activity_regularizer": null}}, {"name": "bn4d_branch2a", "class_name": "BatchNormalization", "inbound_nodes": [[["res4d_branch2a", 0, 0, {}]]], "config": {"name": "bn4d_branch2a", "moving_variance_initializer": {"class_name": "Ones", "config": {}}, "epsilon": 0.001, "beta_initializer": {"class_name": "Zeros", "config": {}}, "gamma_regularizer": null, "scale": true, "center": true, "gamma_constraint": null, "momentum": 0.99, "trainable": true, "beta_constraint": null, "moving_mean_initializer": {"class_name": "Zeros", "config": {}}, "gamma_initializer": {"class_name": "Ones", "config": {}}, "beta_regularizer": null, "axis": 3}}, {"name": "activation_32", "class_name": "Activation", "inbound_nodes": [[["bn4d_branch2a", 0, 0, {}]]], "config": {"name": "activation_32", "trainable": true, "activation": "relu"}}, {"name": "res4d_branch2b", "class_name": "Conv2D", "inbound_nodes": [[["activation_32", 0, 0, {}]]], "config": {"kernel_initializer": {"class_name": "VarianceScaling", "config": {"mode": "fan_avg", "seed": null, "scale": 1.0, "distribution": "uniform"}}, "data_format": "channels_last", "bias_initializer": {"class_name": "Zeros", "config": {}}, "dilation_rate": [1, 1], "padding": "same", "name": "res4d_branch2b", "use_bias": true, "bias_constraint": null, "kernel_size": [3, 3], "trainable": true, "activation": "linear", "kernel_constraint": null, "bias_regularizer": null, "kernel_regularizer": null, "filters": 256, "strides": [1, 1], "activity_regularizer": null}}, {"name": "bn4d_branch2b", "class_name": "BatchNormalization", "inbound_nodes": [[["res4d_branch2b", 0, 0, {}]]], "config": {"name": "bn4d_branch2b", "moving_variance_initializer": {"class_name": "Ones", "config": {}}, "epsilon": 0.001, "beta_initializer": {"class_name": "Zeros", "config": {}}, "gamma_regularizer": null, "scale": true, "center": true, "gamma_constraint": null, "momentum": 0.99, "trainable": true, "beta_constraint": null, "moving_mean_initializer": {"class_name": "Zeros", "config": {}}, "gamma_initializer": {"class_name": "Ones", "config": {}}, "beta_regularizer": null, "axis": 3}}, {"name": "activation_33", "class_name": "Activation", "inbound_nodes": [[["bn4d_branch2b", 0, 0, {}]]], "config": {"name": "activation_33", "trainable": true, "activation": "relu"}}, {"name": "res4d_branch2c", "class_name": "Conv2D", "inbound_nodes": [[["activation_33", 0, 0, {}]]], "config": {"kernel_initializer": {"class_name": "VarianceScaling", "config": {"mode": "fan_avg", "seed": null, "scale": 1.0, "distribution": "uniform"}}, "data_format": "channels_last", "bias_initializer": {"class_name": "Zeros", "config": {}}, "dilation_rate": [1, 1], "padding": "valid", "name": "res4d_branch2c", "use_bias": true, "bias_constraint": null, "kernel_size": [1, 1], "trainable": true, "activation": "linear", "kernel_constraint": null, "bias_regularizer": null, "kernel_regularizer": null, "filters": 1024, "strides": [1, 1], "activity_regularizer": null}}, {"name": "bn4d_branch2c", "class_name": "BatchNormalization", "inbound_nodes": [[["res4d_branch2c", 0, 0, {}]]], "config": {"name": "bn4d_branch2c", "moving_variance_initializer": {"class_name": "Ones", "config": {}}, "epsilon": 0.001, "beta_initializer": {"class_name": "Zeros", "config": {}}, "gamma_regularizer": null, "scale": true, "center": true, "gamma_constraint": null, "momentum": 0.99, "trainable": true, "beta_constraint": null, "moving_mean_initializer": {"class_name": "Zeros", "config": {}}, "gamma_initializer": {"class_name": "Ones", "config": {}}, "beta_regularizer": null, "axis": 3}}, {"name": "add_11", "class_name": "Add", "inbound_nodes": [[["bn4d_branch2c", 0, 0, {}], ["activation_31", 0, 0, {}]]], "config": {"name": "add_11", "trainable": true}}, {"name": "activation_34", "class_name": "Activation", "inbound_nodes": [[["add_11", 0, 0, {}]]], "config": {"name": "activation_34", "trainable": true, "activation": "relu"}}, {"name": "res4e_branch2a", "class_name": "Conv2D", "inbound_nodes": [[["activation_34", 0, 0, {}]]], "config": {"kernel_initializer": {"class_name": "VarianceScaling", "config": {"mode": "fan_avg", "seed": null, "scale": 1.0, "distribution": "uniform"}}, "data_format": "channels_last", "bias_initializer": {"class_name": "Zeros", "config": {}}, "dilation_rate": [1, 1], "padding": "valid", "name": "res4e_branch2a", "use_bias": true, "bias_constraint": null, "kernel_size": [1, 1], "trainable": true, "activation": "linear", "kernel_constraint": null, "bias_regularizer": null, "kernel_regularizer": null, "filters": 256, "strides": [1, 1], "activity_regularizer": null}}, {"name": "bn4e_branch2a", "class_name": "BatchNormalization", "inbound_nodes": [[["res4e_branch2a", 0, 0, {}]]], "config": {"name": "bn4e_branch2a", "moving_variance_initializer": {"class_name": "Ones", "config": {}}, "epsilon": 0.001, "beta_initializer": {"class_name": "Zeros", "config": {}}, "gamma_regularizer": null, "scale": true, "center": true, "gamma_constraint": null, "momentum": 0.99, "trainable": true, "beta_constraint": null, "moving_mean_initializer": {"class_name": "Zeros", "config": {}}, "gamma_initializer": {"class_name": "Ones", "config": {}}, "beta_regularizer": null, "axis": 3}}, {"name": "activation_35", "class_name": "Activation", "inbound_nodes": [[["bn4e_branch2a", 0, 0, {}]]], "config": {"name": "activation_35", "trainable": true, "activation": "relu"}}, {"name": "res4e_branch2b", "class_name": "Conv2D", "inbound_nodes": [[["activation_35", 0, 0, {}]]], "config": {"kernel_initializer": {"class_name": "VarianceScaling", "config": {"mode": "fan_avg", "seed": null, "scale": 1.0, "distribution": "uniform"}}, "data_format": "channels_last", "bias_initializer": {"class_name": "Zeros", "config": {}}, "dilation_rate": [1, 1], "padding": "same", "name": "res4e_branch2b", "use_bias": true, "bias_constraint": null, "kernel_size": [3, 3], "trainable": true, "activation": "linear", "kernel_constraint": null, "bias_regularizer": null, "kernel_regularizer": null, "filters": 256, "strides": [1, 1], "activity_regularizer": null}}, {"name": "bn4e_branch2b", "class_name": "BatchNormalization", "inbound_nodes": [[["res4e_branch2b", 0, 0, {}]]], "config": {"name": "bn4e_branch2b", "moving_variance_initializer": {"class_name": "Ones", "config": {}}, "epsilon": 0.001, "beta_initializer": {"class_name": "Zeros", "config": {}}, "gamma_regularizer": null, "scale": true, "center": true, "gamma_constraint": null, "momentum": 0.99, "trainable": true, "beta_constraint": null, "moving_mean_initializer": {"class_name": "Zeros", "config": {}}, "gamma_initializer": {"class_name": "Ones", "config": {}}, "beta_regularizer": null, "axis": 3}}, {"name": "activation_36", "class_name": "Activation", "inbound_nodes": [[["bn4e_branch2b", 0, 0, {}]]], "config": {"name": "activation_36", "trainable": true, "activation": "relu"}}, {"name": "res4e_branch2c", "class_name": "Conv2D", "inbound_nodes": [[["activation_36", 0, 0, {}]]], "config": {"kernel_initializer": {"class_name": "VarianceScaling", "config": {"mode": "fan_avg", "seed": null, "scale": 1.0, "distribution": "uniform"}}, "data_format": "channels_last", "bias_initializer": {"class_name": "Zeros", "config": {}}, "dilation_rate": [1, 1], "padding": "valid", "name": "res4e_branch2c", "use_bias": true, "bias_constraint": null, "kernel_size": [1, 1], "trainable": true, "activation": "linear", "kernel_constraint": null, "bias_regularizer": null, "kernel_regularizer": null, "filters": 1024, "strides": [1, 1], "activity_regularizer": null}}, {"name": "bn4e_branch2c", "class_name": "BatchNormalization", "inbound_nodes": [[["res4e_branch2c", 0, 0, {}]]], "config": {"name": "bn4e_branch2c", "moving_variance_initializer": {"class_name": "Ones", "config": {}}, "epsilon": 0.001, "beta_initializer": {"class_name": "Zeros", "config": {}}, "gamma_regularizer": null, "scale": true, "center": true, "gamma_constraint": null, "momentum": 0.99, "trainable": true, "beta_constraint": null, "moving_mean_initializer": {"class_name": "Zeros", "config": {}}, "gamma_initializer": {"class_name": "Ones", "config": {}}, "beta_regularizer": null, "axis": 3}}, {"name": "add_12", "class_name": "Add", "inbound_nodes": [[["bn4e_branch2c", 0, 0, {}], ["activation_34", 0, 0, {}]]], "config": {"name": "add_12", "trainable": true}}, {"name": "activation_37", "class_name": "Activation", "inbound_nodes": [[["add_12", 0, 0, {}]]], "config": {"name": "activation_37", "trainable": true, "activation": "relu"}}, {"name": "res4f_branch2a", "class_name": "Conv2D", "inbound_nodes": [[["activation_37", 0, 0, {}]]], "config": {"kernel_initializer": {"class_name": "VarianceScaling", "config": {"mode": "fan_avg", "seed": null, "scale": 1.0, "distribution": "uniform"}}, "data_format": "channels_last", "bias_initializer": {"class_name": "Zeros", "config": {}}, "dilation_rate": [1, 1], "padding": "valid", "name": "res4f_branch2a", "use_bias": true, "bias_constraint": null, "kernel_size": [1, 1], "trainable": true, "activation": "linear", "kernel_constraint": null, "bias_regularizer": null, "kernel_regularizer": null, "filters": 256, "strides": [1, 1], "activity_regularizer": null}}, {"name": "bn4f_branch2a", "class_name": "BatchNormalization", "inbound_nodes": [[["res4f_branch2a", 0, 0, {}]]], "config": {"name": "bn4f_branch2a", "moving_variance_initializer": {"class_name": "Ones", "config": {}}, "epsilon": 0.001, "beta_initializer": {"class_name": "Zeros", "config": {}}, "gamma_regularizer": null, "scale": true, "center": true, "gamma_constraint": null, "momentum": 0.99, "trainable": true, "beta_constraint": null, "moving_mean_initializer": {"class_name": "Zeros", "config": {}}, "gamma_initializer": {"class_name": "Ones", "config": {}}, "beta_regularizer": null, "axis": 3}}, {"name": "activation_38", "class_name": "Activation", "inbound_nodes": [[["bn4f_branch2a", 0, 0, {}]]], "config": {"name": "activation_38", "trainable": true, "activation": "relu"}}, {"name": "res4f_branch2b", "class_name": "Conv2D", "inbound_nodes": [[["activation_38", 0, 0, {}]]], "config": {"kernel_initializer": {"class_name": "VarianceScaling", "config": {"mode": "fan_avg", "seed": null, "scale": 1.0, "distribution": "uniform"}}, "data_format": "channels_last", "bias_initializer": {"class_name": "Zeros", "config": {}}, "dilation_rate": [1, 1], "padding": "same", "name": "res4f_branch2b", "use_bias": true, "bias_constraint": null, "kernel_size": [3, 3], "trainable": true, "activation": "linear", "kernel_constraint": null, "bias_regularizer": null, "kernel_regularizer": null, "filters": 256, "strides": [1, 1], "activity_regularizer": null}}, {"name": "bn4f_branch2b", "class_name": "BatchNormalization", "inbound_nodes": [[["res4f_branch2b", 0, 0, {}]]], "config": {"name": "bn4f_branch2b", "moving_variance_initializer": {"class_name": "Ones", "config": {}}, "epsilon": 0.001, "beta_initializer": {"class_name": "Zeros", "config": {}}, "gamma_regularizer": null, "scale": true, "center": true, "gamma_constraint": null, "momentum": 0.99, "trainable": true, "beta_constraint": null, "moving_mean_initializer": {"class_name": "Zeros", "config": {}}, "gamma_initializer": {"class_name": "Ones", "config": {}}, "beta_regularizer": null, "axis": 3}}, {"name": "activation_39", "class_name": "Activation", "inbound_nodes": [[["bn4f_branch2b", 0, 0, {}]]], "config": {"name": "activation_39", "trainable": true, "activation": "relu"}}, {"name": "res4f_branch2c", "class_name": "Conv2D", "inbound_nodes": [[["activation_39", 0, 0, {}]]], "config": {"kernel_initializer": {"class_name": "VarianceScaling", "config": {"mode": "fan_avg", "seed": null, "scale": 1.0, "distribution": "uniform"}}, "data_format": "channels_last", "bias_initializer": {"class_name": "Zeros", "config": {}}, "dilation_rate": [1, 1], "padding": "valid", "name": "res4f_branch2c", "use_bias": true, "bias_constraint": null, "kernel_size": [1, 1], "trainable": true, "activation": "linear", "kernel_constraint": null, "bias_regularizer": null, "kernel_regularizer": null, "filters": 1024, "strides": [1, 1], "activity_regularizer": null}}, {"name": "bn4f_branch2c", "class_name": "BatchNormalization", "inbound_nodes": [[["res4f_branch2c", 0, 0, {}]]], "config": {"name": "bn4f_branch2c", "moving_variance_initializer": {"class_name": "Ones", "config": {}}, "epsilon": 0.001, "beta_initializer": {"class_name": "Zeros", "config": {}}, "gamma_regularizer": null, "scale": true, "center": true, "gamma_constraint": null, "momentum": 0.99, "trainable": true, "beta_constraint": null, "moving_mean_initializer": {"class_name": "Zeros", "config": {}}, "gamma_initializer": {"class_name": "Ones", "config": {}}, "beta_regularizer": null, "axis": 3}}, {"name": "add_13", "class_name": "Add", "inbound_nodes": [[["bn4f_branch2c", 0, 0, {}], ["activation_37", 0, 0, {}]]], "config": {"name": "add_13", "trainable": true}}, {"name": "activation_40", "class_name": "Activation", "inbound_nodes": [[["add_13", 0, 0, {}]]], "config": {"name": "activation_40", "trainable": true, "activation": "relu"}}, {"name": "res5a_branch2a", "class_name": "Conv2D", "inbound_nodes": [[["activation_40", 0, 0, {}]]], "config": {"kernel_initializer": {"class_name": "VarianceScaling", "config": {"mode": "fan_avg", "seed": null, "scale": 1.0, "distribution": "uniform"}}, "data_format": "channels_last", "bias_initializer": {"class_name": "Zeros", "config": {}}, "dilation_rate": [1, 1], "padding": "valid", "name": "res5a_branch2a", "use_bias": true, "bias_constraint": null, "kernel_size": [1, 1], "trainable": true, "activation": "linear", "kernel_constraint": null, "bias_regularizer": null, "kernel_regularizer": null, "filters": 512, "strides": [2, 2], "activity_regularizer": null}}, {"name": "bn5a_branch2a", "class_name": "BatchNormalization", "inbound_nodes": [[["res5a_branch2a", 0, 0, {}]]], "config": {"name": "bn5a_branch2a", "moving_variance_initializer": {"class_name": "Ones", "config": {}}, "epsilon": 0.001, "beta_initializer": {"class_name": "Zeros", "config": {}}, "gamma_regularizer": null, "scale": true, "center": true, "gamma_constraint": null, "momentum": 0.99, "trainable": true, "beta_constraint": null, "moving_mean_initializer": {"class_name": "Zeros", "config": {}}, "gamma_initializer": {"class_name": "Ones", "config": {}}, "beta_regularizer": null, "axis": 3}}, {"name": "activation_41", "class_name": "Activation", "inbound_nodes": [[["bn5a_branch2a", 0, 0, {}]]], "config": {"name": "activation_41", "trainable": true, "activation": "relu"}}, {"name": "res5a_branch2b", "class_name": "Conv2D", "inbound_nodes": [[["activation_41", 0, 0, {}]]], "config": {"kernel_initializer": {"class_name": "VarianceScaling", "config": {"mode": "fan_avg", "seed": null, "scale": 1.0, "distribution": "uniform"}}, "data_format": "channels_last", "bias_initializer": {"class_name": "Zeros", "config": {}}, "dilation_rate": [1, 1], "padding": "same", "name": "res5a_branch2b", "use_bias": true, "bias_constraint": null, "kernel_size": [3, 3], "trainable": true, "activation": "linear", "kernel_constraint": null, "bias_regularizer": null, "kernel_regularizer": null, "filters": 512, "strides": [1, 1], "activity_regularizer": null}}, {"name": "bn5a_branch2b", "class_name": "BatchNormalization", "inbound_nodes": [[["res5a_branch2b", 0, 0, {}]]], "config": {"name": "bn5a_branch2b", "moving_variance_initializer": {"class_name": "Ones", "config": {}}, "epsilon": 0.001, "beta_initializer": {"class_name": "Zeros", "config": {}}, "gamma_regularizer": null, "scale": true, "center": true, "gamma_constraint": null, "momentum": 0.99, "trainable": true, "beta_constraint": null, "moving_mean_initializer": {"class_name": "Zeros", "config": {}}, "gamma_initializer": {"class_name": "Ones", "config": {}}, "beta_regularizer": null, "axis": 3}}, {"name": "activation_42", "class_name": "Activation", "inbound_nodes": [[["bn5a_branch2b", 0, 0, {}]]], "config": {"name": "activation_42", "trainable": true, "activation": "relu"}}, {"name": "res5a_branch2c", "class_name": "Conv2D", "inbound_nodes": [[["activation_42", 0, 0, {}]]], "config": {"kernel_initializer": {"class_name": "VarianceScaling", "config": {"mode": "fan_avg", "seed": null, "scale": 1.0, "distribution": "uniform"}}, "data_format": "channels_last", "bias_initializer": {"class_name": "Zeros", "config": {}}, "dilation_rate": [1, 1], "padding": "valid", "name": "res5a_branch2c", "use_bias": true, "bias_constraint": null, "kernel_size": [1, 1], "trainable": true, "activation": "linear", "kernel_constraint": null, "bias_regularizer": null, "kernel_regularizer": null, "filters": 2048, "strides": [1, 1], "activity_regularizer": null}}, {"name": "res5a_branch1", "class_name": "Conv2D", "inbound_nodes": [[["activation_40", 0, 0, {}]]], "config": {"kernel_initializer": {"class_name": "VarianceScaling", "config": {"mode": "fan_avg", "seed": null, "scale": 1.0, "distribution": "uniform"}}, "data_format": "channels_last", "bias_initializer": {"class_name": "Zeros", "config": {}}, "dilation_rate": [1, 1], "padding": "valid", "name": "res5a_branch1", "use_bias": true, "bias_constraint": null, "kernel_size": [1, 1], "trainable": true, "activation": "linear", "kernel_constraint": null, "bias_regularizer": null, "kernel_regularizer": null, "filters": 2048, "strides": [2, 2], "activity_regularizer": null}}, {"name": "bn5a_branch2c", "class_name": "BatchNormalization", "inbound_nodes": [[["res5a_branch2c", 0, 0, {}]]], "config": {"name": "bn5a_branch2c", "moving_variance_initializer": {"class_name": "Ones", "config": {}}, "epsilon": 0.001, "beta_initializer": {"class_name": "Zeros", "config": {}}, "gamma_regularizer": null, "scale": true, "center": true, "gamma_constraint": null, "momentum": 0.99, "trainable": true, "beta_constraint": null, "moving_mean_initializer": {"class_name": "Zeros", "config": {}}, "gamma_initializer": {"class_name": "Ones", "config": {}}, "beta_regularizer": null, "axis": 3}}, {"name": "bn5a_branch1", "class_name": "BatchNormalization", "inbound_nodes": [[["res5a_branch1", 0, 0, {}]]], "config": {"name": "bn5a_branch1", "moving_variance_initializer": {"class_name": "Ones", "config": {}}, "epsilon": 0.001, "beta_initializer": {"class_name": "Zeros", "config": {}}, "gamma_regularizer": null, "scale": true, "center": true, "gamma_constraint": null, "momentum": 0.99, "trainable": true, "beta_constraint": null, "moving_mean_initializer": {"class_name": "Zeros", "config": {}}, "gamma_initializer": {"class_name": "Ones", "config": {}}, "beta_regularizer": null, "axis": 3}}, {"name": "add_14", "class_name": "Add", "inbound_nodes": [[["bn5a_branch2c", 0, 0, {}], ["bn5a_branch1", 0, 0, {}]]], "config": {"name": "add_14", "trainable": true}}, {"name": "activation_43", "class_name": "Activation", "inbound_nodes": [[["add_14", 0, 0, {}]]], "config": {"name": "activation_43", "trainable": true, "activation": "relu"}}, {"name": "res5b_branch2a", "class_name": "Conv2D", "inbound_nodes": [[["activation_43", 0, 0, {}]]], "config": {"kernel_initializer": {"class_name": "VarianceScaling", "config": {"mode": "fan_avg", "seed": null, "scale": 1.0, "distribution": "uniform"}}, "data_format": "channels_last", "bias_initializer": {"class_name": "Zeros", "config": {}}, "dilation_rate": [1, 1], "padding": "valid", "name": "res5b_branch2a", "use_bias": true, "bias_constraint": null, "kernel_size": [1, 1], "trainable": true, "activation": "linear", "kernel_constraint": null, "bias_regularizer": null, "kernel_regularizer": null, "filters": 512, "strides": [1, 1], "activity_regularizer": null}}, {"name": "bn5b_branch2a", "class_name": "BatchNormalization", "inbound_nodes": [[["res5b_branch2a", 0, 0, {}]]], "config": {"name": "bn5b_branch2a", "moving_variance_initializer": {"class_name": "Ones", "config": {}}, "epsilon": 0.001, "beta_initializer": {"class_name": "Zeros", "config": {}}, "gamma_regularizer": null, "scale": true, "center": true, "gamma_constraint": null, "momentum": 0.99, "trainable": true, "beta_constraint": null, "moving_mean_initializer": {"class_name": "Zeros", "config": {}}, "gamma_initializer": {"class_name": "Ones", "config": {}}, "beta_regularizer": null, "axis": 3}}, {"name": "activation_44", "class_name": "Activation", "inbound_nodes": [[["bn5b_branch2a", 0, 0, {}]]], "config": {"name": "activation_44", "trainable": true, "activation": "relu"}}, {"name": "res5b_branch2b", "class_name": "Conv2D", "inbound_nodes": [[["activation_44", 0, 0, {}]]], "config": {"kernel_initializer": {"class_name": "VarianceScaling", "config": {"mode": "fan_avg", "seed": null, "scale": 1.0, "distribution": "uniform"}}, "data_format": "channels_last", "bias_initializer": {"class_name": "Zeros", "config": {}}, "dilation_rate": [1, 1], "padding": "same", "name": "res5b_branch2b", "use_bias": true, "bias_constraint": null, "kernel_size": [3, 3], "trainable": true, "activation": "linear", "kernel_constraint": null, "bias_regularizer": null, "kernel_regularizer": null, "filters": 512, "strides": [1, 1], "activity_regularizer": null}}, {"name": "bn5b_branch2b", "class_name": "BatchNormalization", "inbound_nodes": [[["res5b_branch2b", 0, 0, {}]]], "config": {"name": "bn5b_branch2b", "moving_variance_initializer": {"class_name": "Ones", "config": {}}, "epsilon": 0.001, "beta_initializer": {"class_name": "Zeros", "config": {}}, "gamma_regularizer": null, "scale": true, "center": true, "gamma_constraint": null, "momentum": 0.99, "trainable": true, "beta_constraint": null, "moving_mean_initializer": {"class_name": "Zeros", "config": {}}, "gamma_initializer": {"class_name": "Ones", "config": {}}, "beta_regularizer": null, "axis": 3}}, {"name": "activation_45", "class_name": "Activation", "inbound_nodes": [[["bn5b_branch2b", 0, 0, {}]]], "config": {"name": "activation_45", "trainable": true, "activation": "relu"}}, {"name": "res5b_branch2c", "class_name": "Conv2D", "inbound_nodes": [[["activation_45", 0, 0, {}]]], "config": {"kernel_initializer": {"class_name": "VarianceScaling", "config": {"mode": "fan_avg", "seed": null, "scale": 1.0, "distribution": "uniform"}}, "data_format": "channels_last", "bias_initializer": {"class_name": "Zeros", "config": {}}, "dilation_rate": [1, 1], "padding": "valid", "name": "res5b_branch2c", "use_bias": true, "bias_constraint": null, "kernel_size": [1, 1], "trainable": true, "activation": "linear", "kernel_constraint": null, "bias_regularizer": null, "kernel_regularizer": null, "filters": 2048, "strides": [1, 1], "activity_regularizer": null}}, {"name": "bn5b_branch2c", "class_name": "BatchNormalization", "inbound_nodes": [[["res5b_branch2c", 0, 0, {}]]], "config": {"name": "bn5b_branch2c", "moving_variance_initializer": {"class_name": "Ones", "config": {}}, "epsilon": 0.001, "beta_initializer": {"class_name": "Zeros", "config": {}}, "gamma_regularizer": null, "scale": true, "center": true, "gamma_constraint": null, "momentum": 0.99, "trainable": true, "beta_constraint": null, "moving_mean_initializer": {"class_name": "Zeros", "config": {}}, "gamma_initializer": {"class_name": "Ones", "config": {}}, "beta_regularizer": null, "axis": 3}}, {"name": "add_15", "class_name": "Add", "inbound_nodes": [[["bn5b_branch2c", 0, 0, {}], ["activation_43", 0, 0, {}]]], "config": {"name": "add_15", "trainable": true}}, {"name": "activation_46", "class_name": "Activation", "inbound_nodes": [[["add_15", 0, 0, {}]]], "config": {"name": "activation_46", "trainable": true, "activation": "relu"}}, {"name": "res5c_branch2a", "class_name": "Conv2D", "inbound_nodes": [[["activation_46", 0, 0, {}]]], "config": {"kernel_initializer": {"class_name": "VarianceScaling", "config": {"mode": "fan_avg", "seed": null, "scale": 1.0, "distribution": "uniform"}}, "data_format": "channels_last", "bias_initializer": {"class_name": "Zeros", "config": {}}, "dilation_rate": [1, 1], "padding": "valid", "name": "res5c_branch2a", "use_bias": true, "bias_constraint": null, "kernel_size": [1, 1], "trainable": true, "activation": "linear", "kernel_constraint": null, "bias_regularizer": null, "kernel_regularizer": null, "filters": 512, "strides": [1, 1], "activity_regularizer": null}}, {"name": "bn5c_branch2a", "class_name": "BatchNormalization", "inbound_nodes": [[["res5c_branch2a", 0, 0, {}]]], "config": {"name": "bn5c_branch2a", "moving_variance_initializer": {"class_name": "Ones", "config": {}}, "epsilon": 0.001, "beta_initializer": {"class_name": "Zeros", "config": {}}, "gamma_regularizer": null, "scale": true, "center": true, "gamma_constraint": null, "momentum": 0.99, "trainable": true, "beta_constraint": null, "moving_mean_initializer": {"class_name": "Zeros", "config": {}}, "gamma_initializer": {"class_name": "Ones", "config": {}}, "beta_regularizer": null, "axis": 3}}, {"name": "activation_47", "class_name": "Activation", "inbound_nodes": [[["bn5c_branch2a", 0, 0, {}]]], "config": {"name": "activation_47", "trainable": true, "activation": "relu"}}, {"name": "res5c_branch2b", "class_name": "Conv2D", "inbound_nodes": [[["activation_47", 0, 0, {}]]], "config": {"kernel_initializer": {"class_name": "VarianceScaling", "config": {"mode": "fan_avg", "seed": null, "scale": 1.0, "distribution": "uniform"}}, "data_format": "channels_last", "bias_initializer": {"class_name": "Zeros", "config": {}}, "dilation_rate": [1, 1], "padding": "same", "name": "res5c_branch2b", "use_bias": true, "bias_constraint": null, "kernel_size": [3, 3], "trainable": true, "activation": "linear", "kernel_constraint": null, "bias_regularizer": null, "kernel_regularizer": null, "filters": 512, "strides": [1, 1], "activity_regularizer": null}}, {"name": "bn5c_branch2b", "class_name": "BatchNormalization", "inbound_nodes": [[["res5c_branch2b", 0, 0, {}]]], "config": {"name": "bn5c_branch2b", "moving_variance_initializer": {"class_name": "Ones", "config": {}}, "epsilon": 0.001, "beta_initializer": {"class_name": "Zeros", "config": {}}, "gamma_regularizer": null, "scale": true, "center": true, "gamma_constraint": null, "momentum": 0.99, "trainable": true, "beta_constraint": null, "moving_mean_initializer": {"class_name": "Zeros", "config": {}}, "gamma_initializer": {"class_name": "Ones", "config": {}}, "beta_regularizer": null, "axis": 3}}, {"name": "activation_48", "class_name": "Activation", "inbound_nodes": [[["bn5c_branch2b", 0, 0, {}]]], "config": {"name": "activation_48", "trainable": true, "activation": "relu"}}, {"name": "res5c_branch2c", "class_name": "Conv2D", "inbound_nodes": [[["activation_48", 0, 0, {}]]], "config": {"kernel_initializer": {"class_name": "VarianceScaling", "config": {"mode": "fan_avg", "seed": null, "scale": 1.0, "distribution": "uniform"}}, "data_format": "channels_last", "bias_initializer": {"class_name": "Zeros", "config": {}}, "dilation_rate": [1, 1], "padding": "valid", "name": "res5c_branch2c", "use_bias": true, "bias_constraint": null, "kernel_size": [1, 1], "trainable": true, "activation": "linear", "kernel_constraint": null, "bias_regularizer": null, "kernel_regularizer": null, "filters": 2048, "strides": [1, 1], "activity_regularizer": null}}, {"name": "bn5c_branch2c", "class_name": "BatchNormalization", "inbound_nodes": [[["res5c_branch2c", 0, 0, {}]]], "config": {"name": "bn5c_branch2c", "moving_variance_initializer": {"class_name": "Ones", "config": {}}, "epsilon": 0.001, "beta_initializer": {"class_name": "Zeros", "config": {}}, "gamma_regularizer": null, "scale": true, "center": true, "gamma_constraint": null, "momentum": 0.99, "trainable": true, "beta_constraint": null, "moving_mean_initializer": {"class_name": "Zeros", "config": {}}, "gamma_initializer": {"class_name": "Ones", "config": {}}, "beta_regularizer": null, "axis": 3}}, {"name": "add_16", "class_name": "Add", "inbound_nodes": [[["bn5c_branch2c", 0, 0, {}], ["activation_46", 0, 0, {}]]], "config": {"name": "add_16", "trainable": true}}, {"name": "activation_49", "class_name": "Activation", "inbound_nodes": [[["add_16", 0, 0, {}]]], "config": {"name": "activation_49", "trainable": true, "activation": "relu"}}, {"name": "avg_pool", "class_name": "AveragePooling2D", "inbound_nodes": [[["activation_49", 0, 0, {}]]], "config": {"data_format": "channels_last", "trainable": true, "name": "avg_pool", "padding": "valid", "strides": [7, 7], "pool_size": [7, 7]}}, {"name": "flatten_1", "class_name": "Flatten", "inbound_nodes": [[["avg_pool", 0, 0, {}]]], "config": {"data_format": "channels_last", "name": "flatten_1", "trainable": true}}, {"name": "fc1000", "class_name": "Dense", "inbound_nodes": [[["flatten_1", 0, 0, {}]]], "config": {"units": 1000, "kernel_initializer": {"class_name": "VarianceScaling", "config": {"mode": "fan_avg", "seed": null, "scale": 1.0, "distribution": "uniform"}}, "bias_initializer": {"class_name": "Zeros", "config": {}}, "activity_regularizer": null, "name": "fc1000", "activation": "softmax", "bias_constraint": null, "trainable": true, "kernel_constraint": null, "bias_regularizer": null, "kernel_regularizer": null, "use_bias": true}}, {"name": "activation_50", "class_name": "Activation", "inbound_nodes": [[["fc1000", 0, 0, {}]]], "config": {"name": "activation_50", "trainable": true, "activation": "relu"}}, {"name": "dropout_1", "class_name": "Dropout", "inbound_nodes": [[["activation_50", 0, 0, {}]]], "config": {"name": "dropout_1", "seed": null, "rate": 0.25, "trainable": true, "noise_shape": null}}, {"name": "dense_1", "class_name": "Dense", "inbound_nodes": [[["dropout_1", 0, 0, {}]]], "config": {"units": 2, "kernel_initializer": {"class_name": "VarianceScaling", "config": {"mode": "fan_avg", "seed": null, "scale": 1.0, "distribution": "uniform"}}, "bias_initializer": {"class_name": "Zeros", "config": {}}, "activity_regularizer": null, "name": "dense_1", "activation": "softmax", "bias_constraint": null, "trainable": true, "kernel_constraint": null, "bias_regularizer": null, "kernel_regularizer": null, "use_bias": true}}], "name": "model_1", "output_layers": [["dense_1", 0, 0]]}}