{"config": {"name": "model_1", "layers": [{"config": {"dtype": "float32", "name": "input_1", "batch_input_shape": [null, 224, 224, 3], "sparse": false}, "name": "input_1", "class_name": "InputLayer", "inbound_nodes": []}, {"config": {"padding": [[3, 3], [3, 3]], "data_format": "channels_last", "name": "conv1_pad", "trainable": true}, "name": "conv1_pad", "class_name": "ZeroPadding2D", "inbound_nodes": [[["input_1", 0, 0, {}]]]}, {"config": {"kernel_size": [7, 7], "activation": "linear", "kernel_regularizer": null, "filters": 64, "kernel_constraint": null, "padding": "valid", "dilation_rate": [1, 1], "data_format": "channels_last", "trainable": true, "bias_constraint": null, "kernel_initializer": {"config": {"mode": "fan_avg", "seed": null, "distribution": "uniform", "scale": 1.0}, "class_name": "VarianceScaling"}, "bias_initializer": {"config": {}, "class_name": "Zeros"}, "bias_regularizer": null, "activity_regularizer": null, "strides": [2, 2], "name": "conv1", "use_bias": true}, "name": "conv1", "class_name": "Conv2D", "inbound_nodes": [[["conv1_pad", 0, 0, {}]]]}, {"config": {"momentum": 0.99, "center": true, "trainable": true, "scale": true, "moving_variance_initializer": {"config": {}, "class_name": "Ones"}, "beta_initializer": {"config": {}, "class_name": "Zeros"}, "axis": 3, "gamma_constraint": null, "beta_constraint": null, "gamma_initializer": {"config": {}, "class_name": "Ones"}, "gamma_regularizer": null, "moving_mean_initializer": {"config": {}, "class_name": "Zeros"}, "name": "bn_conv1", "epsilon": 0.001, "beta_regularizer": null}, "name": "bn_conv1", "class_name": "BatchNormalization", "inbound_nodes": [[["conv1", 0, 0, {}]]]}, {"config": {"activation": "relu", "name": "activation_1", "trainable": true}, "name": "activation_1", "class_name": "Activation", "inbound_nodes": [[["bn_conv1", 0, 0, {}]]]}, {"config": {"padding": "valid", "name": "max_pooling2d_1", "data_format": "channels_last", "pool_size": [3, 3], "trainable": true, "strides": [2, 2]}, "name": "max_pooling2d_1", "class_name": "MaxPooling2D", "inbound_nodes": [[["activation_1", 0, 0, {}]]]}, {"config": {"kernel_size": [1, 1], "activation": "linear", "kernel_regularizer": null, "filters": 64, "kernel_constraint": null, "padding": "valid", "dilation_rate": [1, 1], "data_format": "channels_last", "trainable": true, "bias_constraint": null, "kernel_initializer": {"config": {"mode": "fan_avg", "seed": null, "distribution": "uniform", "scale": 1.0}, "class_name": "VarianceScaling"}, "bias_initializer": {"config": {}, "class_name": "Zeros"}, "bias_regularizer": null, "activity_regularizer": null, "strides": [1, 1], "name": "res2a_branch2a", "use_bias": true}, "name": "res2a_branch2a", "class_name": "Conv2D", "inbound_nodes": [[["max_pooling2d_1", 0, 0, {}]]]}, {"config": {"momentum": 0.99, "center": true, "trainable": true, "scale": true, "moving_variance_initializer": {"config": {}, "class_name": "Ones"}, "beta_initializer": {"config": {}, "class_name": "Zeros"}, "axis": 3, "gamma_constraint": null, "beta_constraint": null, "gamma_initializer": {"config": {}, "class_name": "Ones"}, "gamma_regularizer": null, "moving_mean_initializer": {"config": {}, "class_name": "Zeros"}, "name": "bn2a_branch2a", "epsilon": 0.001, "beta_regularizer": null}, "name": "bn2a_branch2a", "class_name": "BatchNormalization", "inbound_nodes": [[["res2a_branch2a", 0, 0, {}]]]}, {"config": {"activation": "relu", "name": "activation_2", "trainable": true}, "name": "activation_2", "class_name": "Activation", "inbound_nodes": [[["bn2a_branch2a", 0, 0, {}]]]}, {"config": {"kernel_size": [3, 3], "activation": "linear", "kernel_regularizer": null, "filters": 64, "kernel_constraint": null, "padding": "same", "dilation_rate": [1, 1], "data_format": "channels_last", "trainable": true, "bias_constraint": null, "kernel_initializer": {"config": {"mode": "fan_avg", "seed": null, "distribution": "uniform", "scale": 1.0}, "class_name": "VarianceScaling"}, "bias_initializer": {"config": {}, "class_name": "Zeros"}, "bias_regularizer": null, "activity_regularizer": null, "strides": [1, 1], "name": "res2a_branch2b", "use_bias": true}, "name": "res2a_branch2b", "class_name": "Conv2D", "inbound_nodes": [[["activation_2", 0, 0, {}]]]}, {"config": {"momentum": 0.99, "center": true, "trainable": true, "scale": true, "moving_variance_initializer": {"config": {}, "class_name": "Ones"}, "beta_initializer": {"config": {}, "class_name": "Zeros"}, "axis": 3, "gamma_constraint": null, "beta_constraint": null, "gamma_initializer": {"config": {}, "class_name": "Ones"}, "gamma_regularizer": null, "moving_mean_initializer": {"config": {}, "class_name": "Zeros"}, "name": "bn2a_branch2b", "epsilon": 0.001, "beta_regularizer": null}, "name": "bn2a_branch2b", "class_name": "BatchNormalization", "inbound_nodes": [[["res2a_branch2b", 0, 0, {}]]]}, {"config": {"activation": "relu", "name": "activation_3", "trainable": true}, "name": "activation_3", "class_name": "Activation", "inbound_nodes": [[["bn2a_branch2b", 0, 0, {}]]]}, {"config": {"kernel_size": [1, 1], "activation": "linear", "kernel_regularizer": null, "filters": 256, "kernel_constraint": null, "padding": "valid", "dilation_rate": [1, 1], "data_format": "channels_last", "trainable": true, "bias_constraint": null, "kernel_initializer": {"config": {"mode": "fan_avg", "seed": null, "distribution": "uniform", "scale": 1.0}, "class_name": "VarianceScaling"}, "bias_initializer": {"config": {}, "class_name": "Zeros"}, "bias_regularizer": null, "activity_regularizer": null, "strides": [1, 1], "name": "res2a_branch2c", "use_bias": true}, "name": "res2a_branch2c", "class_name": "Conv2D", "inbound_nodes": [[["activation_3", 0, 0, {}]]]}, {"config": {"kernel_size": [1, 1], "activation": "linear", "kernel_regularizer": null, "filters": 256, "kernel_constraint": null, "padding": "valid", "dilation_rate": [1, 1], "data_format": "channels_last", "trainable": true, "bias_constraint": null, "kernel_initializer": {"config": {"mode": "fan_avg", "seed": null, "distribution": "uniform", "scale": 1.0}, "class_name": "VarianceScaling"}, "bias_initializer": {"config": {}, "class_name": "Zeros"}, "bias_regularizer": null, "activity_regularizer": null, "strides": [1, 1], "name": "res2a_branch1", "use_bias": true}, "name": "res2a_branch1", "class_name": "Conv2D", "inbound_nodes": [[["max_pooling2d_1", 0, 0, {}]]]}, {"config": {"momentum": 0.99, "center": true, "trainable": true, "scale": true, "moving_variance_initializer": {"config": {}, "class_name": "Ones"}, "beta_initializer": {"config": {}, "class_name": "Zeros"}, "axis": 3, "gamma_constraint": null, "beta_constraint": null, "gamma_initializer": {"config": {}, "class_name": "Ones"}, "gamma_regularizer": null, "moving_mean_initializer": {"config": {}, "class_name": "Zeros"}, "name": "bn2a_branch2c", "epsilon": 0.001, "beta_regularizer": null}, "name": "bn2a_branch2c", "class_name": "BatchNormalization", "inbound_nodes": [[["res2a_branch2c", 0, 0, {}]]]}, {"config": {"momentum": 0.99, "center": true, "trainable": true, "scale": true, "moving_variance_initializer": {"config": {}, "class_name": "Ones"}, "beta_initializer": {"config": {}, "class_name": "Zeros"}, "axis": 3, "gamma_constraint": null, "beta_constraint": null, "gamma_initializer": {"config": {}, "class_name": "Ones"}, "gamma_regularizer": null, "moving_mean_initializer": {"config": {}, "class_name": "Zeros"}, "name": "bn2a_branch1", "epsilon": 0.001, "beta_regularizer": null}, "name": "bn2a_branch1", "class_name": "BatchNormalization", "inbound_nodes": [[["res2a_branch1", 0, 0, {}]]]}, {"config": {"name": "add_1", "trainable": true}, "name": "add_1", "class_name": "Add", "inbound_nodes": [[["bn2a_branch2c", 0, 0, {}], ["bn2a_branch1", 0, 0, {}]]]}, {"config": {"activation": "relu", "name": "activation_4", "trainable": true}, "name": "activation_4", "class_name": "Activation", "inbound_nodes": [[["add_1", 0, 0, {}]]]}, {"config": {"kernel_size": [1, 1], "activation": "linear", "kernel_regularizer": null, "filters": 64, "kernel_constraint": null, "padding": "valid", "dilation_rate": [1, 1], "data_format": "channels_last", "trainable": true, "bias_constraint": null, "kernel_initializer": {"config": {"mode": "fan_avg", "seed": null, "distribution": "uniform", "scale": 1.0}, "class_name": "VarianceScaling"}, "bias_initializer": {"config": {}, "class_name": "Zeros"}, "bias_regularizer": null, "activity_regularizer": null, "strides": [1, 1], "name": "res2b_branch2a", "use_bias": true}, "name": "res2b_branch2a", "class_name": "Conv2D", "inbound_nodes": [[["activation_4", 0, 0, {}]]]}, {"config": {"momentum": 0.99, "center": true, "trainable": true, "scale": true, "moving_variance_initializer": {"config": {}, "class_name": "Ones"}, "beta_initializer": {"config": {}, "class_name": "Zeros"}, "axis": 3, "gamma_constraint": null, "beta_constraint": null, "gamma_initializer": {"config": {}, "class_name": "Ones"}, "gamma_regularizer": null, "moving_mean_initializer": {"config": {}, "class_name": "Zeros"}, "name": "bn2b_branch2a", "epsilon": 0.001, "beta_regularizer": null}, "name": "bn2b_branch2a", "class_name": "BatchNormalization", "inbound_nodes": [[["res2b_branch2a", 0, 0, {}]]]}, {"config": {"activation": "relu", "name": "activation_5", "trainable": true}, "name": "activation_5", "class_name": "Activation", "inbound_nodes": [[["bn2b_branch2a", 0, 0, {}]]]}, {"config": {"kernel_size": [3, 3], "activation": "linear", "kernel_regularizer": null, "filters": 64, "kernel_constraint": null, "padding": "same", "dilation_rate": [1, 1], "data_format": "channels_last", "trainable": true, "bias_constraint": null, "kernel_initializer": {"config": {"mode": "fan_avg", "seed": null, "distribution": "uniform", "scale": 1.0}, "class_name": "VarianceScaling"}, "bias_initializer": {"config": {}, "class_name": "Zeros"}, "bias_regularizer": null, "activity_regularizer": null, "strides": [1, 1], "name": "res2b_branch2b", "use_bias": true}, "name": "res2b_branch2b", "class_name": "Conv2D", "inbound_nodes": [[["activation_5", 0, 0, {}]]]}, {"config": {"momentum": 0.99, "center": true, "trainable": true, "scale": true, "moving_variance_initializer": {"config": {}, "class_name": "Ones"}, "beta_initializer": {"config": {}, "class_name": "Zeros"}, "axis": 3, "gamma_constraint": null, "beta_constraint": null, "gamma_initializer": {"config": {}, "class_name": "Ones"}, "gamma_regularizer": null, "moving_mean_initializer": {"config": {}, "class_name": "Zeros"}, "name": "bn2b_branch2b", "epsilon": 0.001, "beta_regularizer": null}, "name": "bn2b_branch2b", "class_name": "BatchNormalization", "inbound_nodes": [[["res2b_branch2b", 0, 0, {}]]]}, {"config": {"activation": "relu", "name": "activation_6", "trainable": true}, "name": "activation_6", "class_name": "Activation", "inbound_nodes": [[["bn2b_branch2b", 0, 0, {}]]]}, {"config": {"kernel_size": [1, 1], "activation": "linear", "kernel_regularizer": null, "filters": 256, "kernel_constraint": null, "padding": "valid", "dilation_rate": [1, 1], "data_format": "channels_last", "trainable": true, "bias_constraint": null, "kernel_initializer": {"config": {"mode": "fan_avg", "seed": null, "distribution": "uniform", "scale": 1.0}, "class_name": "VarianceScaling"}, "bias_initializer": {"config": {}, "class_name": "Zeros"}, "bias_regularizer": null, "activity_regularizer": null, "strides": [1, 1], "name": "res2b_branch2c", "use_bias": true}, "name": "res2b_branch2c", "class_name": "Conv2D", "inbound_nodes": [[["activation_6", 0, 0, {}]]]}, {"config": {"momentum": 0.99, "center": true, "trainable": true, "scale": true, "moving_variance_initializer": {"config": {}, "class_name": "Ones"}, "beta_initializer": {"config": {}, "class_name": "Zeros"}, "axis": 3, "gamma_constraint": null, "beta_constraint": null, "gamma_initializer": {"config": {}, "class_name": "Ones"}, "gamma_regularizer": null, "moving_mean_initializer": {"config": {}, "class_name": "Zeros"}, "name": "bn2b_branch2c", "epsilon": 0.001, "beta_regularizer": null}, "name": "bn2b_branch2c", "class_name": "BatchNormalization", "inbound_nodes": [[["res2b_branch2c", 0, 0, {}]]]}, {"config": {"name": "add_2", "trainable": true}, "name": "add_2", "class_name": "Add", "inbound_nodes": [[["bn2b_branch2c", 0, 0, {}], ["activation_4", 0, 0, {}]]]}, {"config": {"activation": "relu", "name": "activation_7", "trainable": true}, "name": "activation_7", "class_name": "Activation", "inbound_nodes": [[["add_2", 0, 0, {}]]]}, {"config": {"kernel_size": [1, 1], "activation": "linear", "kernel_regularizer": null, "filters": 64, "kernel_constraint": null, "padding": "valid", "dilation_rate": [1, 1], "data_format": "channels_last", "trainable": true, "bias_constraint": null, "kernel_initializer": {"config": {"mode": "fan_avg", "seed": null, "distribution": "uniform", "scale": 1.0}, "class_name": "VarianceScaling"}, "bias_initializer": {"config": {}, "class_name": "Zeros"}, "bias_regularizer": null, "activity_regularizer": null, "strides": [1, 1], "name": "res2c_branch2a", "use_bias": true}, "name": "res2c_branch2a", "class_name": "Conv2D", "inbound_nodes": [[["activation_7", 0, 0, {}]]]}, {"config": {"momentum": 0.99, "center": true, "trainable": true, "scale": true, "moving_variance_initializer": {"config": {}, "class_name": "Ones"}, "beta_initializer": {"config": {}, "class_name": "Zeros"}, "axis": 3, "gamma_constraint": null, "beta_constraint": null, "gamma_initializer": {"config": {}, "class_name": "Ones"}, "gamma_regularizer": null, "moving_mean_initializer": {"config": {}, "class_name": "Zeros"}, "name": "bn2c_branch2a", "epsilon": 0.001, "beta_regularizer": null}, "name": "bn2c_branch2a", "class_name": "BatchNormalization", "inbound_nodes": [[["res2c_branch2a", 0, 0, {}]]]}, {"config": {"activation": "relu", "name": "activation_8", "trainable": true}, "name": "activation_8", "class_name": "Activation", "inbound_nodes": [[["bn2c_branch2a", 0, 0, {}]]]}, {"config": {"kernel_size": [3, 3], "activation": "linear", "kernel_regularizer": null, "filters": 64, "kernel_constraint": null, "padding": "same", "dilation_rate": [1, 1], "data_format": "channels_last", "trainable": true, "bias_constraint": null, "kernel_initializer": {"config": {"mode": "fan_avg", "seed": null, "distribution": "uniform", "scale": 1.0}, "class_name": "VarianceScaling"}, "bias_initializer": {"config": {}, "class_name": "Zeros"}, "bias_regularizer": null, "activity_regularizer": null, "strides": [1, 1], "name": "res2c_branch2b", "use_bias": true}, "name": "res2c_branch2b", "class_name": "Conv2D", "inbound_nodes": [[["activation_8", 0, 0, {}]]]}, {"config": {"momentum": 0.99, "center": true, "trainable": true, "scale": true, "moving_variance_initializer": {"config": {}, "class_name": "Ones"}, "beta_initializer": {"config": {}, "class_name": "Zeros"}, "axis": 3, "gamma_constraint": null, "beta_constraint": null, "gamma_initializer": {"config": {}, "class_name": "Ones"}, "gamma_regularizer": null, "moving_mean_initializer": {"config": {}, "class_name": "Zeros"}, "name": "bn2c_branch2b", "epsilon": 0.001, "beta_regularizer": null}, "name": "bn2c_branch2b", "class_name": "BatchNormalization", "inbound_nodes": [[["res2c_branch2b", 0, 0, {}]]]}, {"config": {"activation": "relu", "name": "activation_9", "trainable": true}, "name": "activation_9", "class_name": "Activation", "inbound_nodes": [[["bn2c_branch2b", 0, 0, {}]]]}, {"config": {"kernel_size": [1, 1], "activation": "linear", "kernel_regularizer": null, "filters": 256, "kernel_constraint": null, "padding": "valid", "dilation_rate": [1, 1], "data_format": "channels_last", "trainable": true, "bias_constraint": null, "kernel_initializer": {"config": {"mode": "fan_avg", "seed": null, "distribution": "uniform", "scale": 1.0}, "class_name": "VarianceScaling"}, "bias_initializer": {"config": {}, "class_name": "Zeros"}, "bias_regularizer": null, "activity_regularizer": null, "strides": [1, 1], "name": "res2c_branch2c", "use_bias": true}, "name": "res2c_branch2c", "class_name": "Conv2D", "inbound_nodes": [[["activation_9", 0, 0, {}]]]}, {"config": {"momentum": 0.99, "center": true, "trainable": true, "scale": true, "moving_variance_initializer": {"config": {}, "class_name": "Ones"}, "beta_initializer": {"config": {}, "class_name": "Zeros"}, "axis": 3, "gamma_constraint": null, "beta_constraint": null, "gamma_initializer": {"config": {}, "class_name": "Ones"}, "gamma_regularizer": null, "moving_mean_initializer": {"config": {}, "class_name": "Zeros"}, "name": "bn2c_branch2c", "epsilon": 0.001, "beta_regularizer": null}, "name": "bn2c_branch2c", "class_name": "BatchNormalization", "inbound_nodes": [[["res2c_branch2c", 0, 0, {}]]]}, {"config": {"name": "add_3", "trainable": true}, "name": "add_3", "class_name": "Add", "inbound_nodes": [[["bn2c_branch2c", 0, 0, {}], ["activation_7", 0, 0, {}]]]}, {"config": {"activation": "relu", "name": "activation_10", "trainable": true}, "name": "activation_10", "class_name": "Activation", "inbound_nodes": [[["add_3", 0, 0, {}]]]}, {"config": {"kernel_size": [1, 1], "activation": "linear", "kernel_regularizer": null, "filters": 128, "kernel_constraint": null, "padding": "valid", "dilation_rate": [1, 1], "data_format": "channels_last", "trainable": true, "bias_constraint": null, "kernel_initializer": {"config": {"mode": "fan_avg", "seed": null, "distribution": "uniform", "scale": 1.0}, "class_name": "VarianceScaling"}, "bias_initializer": {"config": {}, "class_name": "Zeros"}, "bias_regularizer": null, "activity_regularizer": null, "strides": [2, 2], "name": "res3a_branch2a", "use_bias": true}, "name": "res3a_branch2a", "class_name": "Conv2D", "inbound_nodes": [[["activation_10", 0, 0, {}]]]}, {"config": {"momentum": 0.99, "center": true, "trainable": true, "scale": true, "moving_variance_initializer": {"config": {}, "class_name": "Ones"}, "beta_initializer": {"config": {}, "class_name": "Zeros"}, "axis": 3, "gamma_constraint": null, "beta_constraint": null, "gamma_initializer": {"config": {}, "class_name": "Ones"}, "gamma_regularizer": null, "moving_mean_initializer": {"config": {}, "class_name": "Zeros"}, "name": "bn3a_branch2a", "epsilon": 0.001, "beta_regularizer": null}, "name": "bn3a_branch2a", "class_name": "BatchNormalization", "inbound_nodes": [[["res3a_branch2a", 0, 0, {}]]]}, {"config": {"activation": "relu", "name": "activation_11", "trainable": true}, "name": "activation_11", "class_name": "Activation", "inbound_nodes": [[["bn3a_branch2a", 0, 0, {}]]]}, {"config": {"kernel_size": [3, 3], "activation": "linear", "kernel_regularizer": null, "filters": 128, "kernel_constraint": null, "padding": "same", "dilation_rate": [1, 1], "data_format": "channels_last", "trainable": true, "bias_constraint": null, "kernel_initializer": {"config": {"mode": "fan_avg", "seed": null, "distribution": "uniform", "scale": 1.0}, "class_name": "VarianceScaling"}, "bias_initializer": {"config": {}, "class_name": "Zeros"}, "bias_regularizer": null, "activity_regularizer": null, "strides": [1, 1], "name": "res3a_branch2b", "use_bias": true}, "name": "res3a_branch2b", "class_name": "Conv2D", "inbound_nodes": [[["activation_11", 0, 0, {}]]]}, {"config": {"momentum": 0.99, "center": true, "trainable": true, "scale": true, "moving_variance_initializer": {"config": {}, "class_name": "Ones"}, "beta_initializer": {"config": {}, "class_name": "Zeros"}, "axis": 3, "gamma_constraint": null, "beta_constraint": null, "gamma_initializer": {"config": {}, "class_name": "Ones"}, "gamma_regularizer": null, "moving_mean_initializer": {"config": {}, "class_name": "Zeros"}, "name": "bn3a_branch2b", "epsilon": 0.001, "beta_regularizer": null}, "name": "bn3a_branch2b", "class_name": "BatchNormalization", "inbound_nodes": [[["res3a_branch2b", 0, 0, {}]]]}, {"config": {"activation": "relu", "name": "activation_12", "trainable": true}, "name": "activation_12", "class_name": "Activation", "inbound_nodes": [[["bn3a_branch2b", 0, 0, {}]]]}, {"config": {"kernel_size": [1, 1], "activation": "linear", "kernel_regularizer": null, "filters": 512, "kernel_constraint": null, "padding": "valid", "dilation_rate": [1, 1], "data_format": "channels_last", "trainable": true, "bias_constraint": null, "kernel_initializer": {"config": {"mode": "fan_avg", "seed": null, "distribution": "uniform", "scale": 1.0}, "class_name": "VarianceScaling"}, "bias_initializer": {"config": {}, "class_name": "Zeros"}, "bias_regularizer": null, "activity_regularizer": null, "strides": [1, 1], "name": "res3a_branch2c", "use_bias": true}, "name": "res3a_branch2c", "class_name": "Conv2D", "inbound_nodes": [[["activation_12", 0, 0, {}]]]}, {"config": {"kernel_size": [1, 1], "activation": "linear", "kernel_regularizer": null, "filters": 512, "kernel_constraint": null, "padding": "valid", "dilation_rate": [1, 1], "data_format": "channels_last", "trainable": true, "bias_constraint": null, "kernel_initializer": {"config": {"mode": "fan_avg", "seed": null, "distribution": "uniform", "scale": 1.0}, "class_name": "VarianceScaling"}, "bias_initializer": {"config": {}, "class_name": "Zeros"}, "bias_regularizer": null, "activity_regularizer": null, "strides": [2, 2], "name": "res3a_branch1", "use_bias": true}, "name": "res3a_branch1", "class_name": "Conv2D", "inbound_nodes": [[["activation_10", 0, 0, {}]]]}, {"config": {"momentum": 0.99, "center": true, "trainable": true, "scale": true, "moving_variance_initializer": {"config": {}, "class_name": "Ones"}, "beta_initializer": {"config": {}, "class_name": "Zeros"}, "axis": 3, "gamma_constraint": null, "beta_constraint": null, "gamma_initializer": {"config": {}, "class_name": "Ones"}, "gamma_regularizer": null, "moving_mean_initializer": {"config": {}, "class_name": "Zeros"}, "name": "bn3a_branch2c", "epsilon": 0.001, "beta_regularizer": null}, "name": "bn3a_branch2c", "class_name": "BatchNormalization", "inbound_nodes": [[["res3a_branch2c", 0, 0, {}]]]}, {"config": {"momentum": 0.99, "center": true, "trainable": true, "scale": true, "moving_variance_initializer": {"config": {}, "class_name": "Ones"}, "beta_initializer": {"config": {}, "class_name": "Zeros"}, "axis": 3, "gamma_constraint": null, "beta_constraint": null, "gamma_initializer": {"config": {}, "class_name": "Ones"}, "gamma_regularizer": null, "moving_mean_initializer": {"config": {}, "class_name": "Zeros"}, "name": "bn3a_branch1", "epsilon": 0.001, "beta_regularizer": null}, "name": "bn3a_branch1", "class_name": "BatchNormalization", "inbound_nodes": [[["res3a_branch1", 0, 0, {}]]]}, {"config": {"name": "add_4", "trainable": true}, "name": "add_4", "class_name": "Add", "inbound_nodes": [[["bn3a_branch2c", 0, 0, {}], ["bn3a_branch1", 0, 0, {}]]]}, {"config": {"activation": "relu", "name": "activation_13", "trainable": true}, "name": "activation_13", "class_name": "Activation", "inbound_nodes": [[["add_4", 0, 0, {}]]]}, {"config": {"kernel_size": [1, 1], "activation": "linear", "kernel_regularizer": null, "filters": 128, "kernel_constraint": null, "padding": "valid", "dilation_rate": [1, 1], "data_format": "channels_last", "trainable": true, "bias_constraint": null, "kernel_initializer": {"config": {"mode": "fan_avg", "seed": null, "distribution": "uniform", "scale": 1.0}, "class_name": "VarianceScaling"}, "bias_initializer": {"config": {}, "class_name": "Zeros"}, "bias_regularizer": null, "activity_regularizer": null, "strides": [1, 1], "name": "res3b_branch2a", "use_bias": true}, "name": "res3b_branch2a", "class_name": "Conv2D", "inbound_nodes": [[["activation_13", 0, 0, {}]]]}, {"config": {"momentum": 0.99, "center": true, "trainable": true, "scale": true, "moving_variance_initializer": {"config": {}, "class_name": "Ones"}, "beta_initializer": {"config": {}, "class_name": "Zeros"}, "axis": 3, "gamma_constraint": null, "beta_constraint": null, "gamma_initializer": {"config": {}, "class_name": "Ones"}, "gamma_regularizer": null, "moving_mean_initializer": {"config": {}, "class_name": "Zeros"}, "name": "bn3b_branch2a", "epsilon": 0.001, "beta_regularizer": null}, "name": "bn3b_branch2a", "class_name": "BatchNormalization", "inbound_nodes": [[["res3b_branch2a", 0, 0, {}]]]}, {"config": {"activation": "relu", "name": "activation_14", "trainable": true}, "name": "activation_14", "class_name": "Activation", "inbound_nodes": [[["bn3b_branch2a", 0, 0, {}]]]}, {"config": {"kernel_size": [3, 3], "activation": "linear", "kernel_regularizer": null, "filters": 128, "kernel_constraint": null, "padding": "same", "dilation_rate": [1, 1], "data_format": "channels_last", "trainable": true, "bias_constraint": null, "kernel_initializer": {"config": {"mode": "fan_avg", "seed": null, "distribution": "uniform", "scale": 1.0}, "class_name": "VarianceScaling"}, "bias_initializer": {"config": {}, "class_name": "Zeros"}, "bias_regularizer": null, "activity_regularizer": null, "strides": [1, 1], "name": "res3b_branch2b", "use_bias": true}, "name": "res3b_branch2b", "class_name": "Conv2D", "inbound_nodes": [[["activation_14", 0, 0, {}]]]}, {"config": {"momentum": 0.99, "center": true, "trainable": true, "scale": true, "moving_variance_initializer": {"config": {}, "class_name": "Ones"}, "beta_initializer": {"config": {}, "class_name": "Zeros"}, "axis": 3, "gamma_constraint": null, "beta_constraint": null, "gamma_initializer": {"config": {}, "class_name": "Ones"}, "gamma_regularizer": null, "moving_mean_initializer": {"config": {}, "class_name": "Zeros"}, "name": "bn3b_branch2b", "epsilon": 0.001, "beta_regularizer": null}, "name": "bn3b_branch2b", "class_name": "BatchNormalization", "inbound_nodes": [[["res3b_branch2b", 0, 0, {}]]]}, {"config": {"activation": "relu", "name": "activation_15", "trainable": true}, "name": "activation_15", "class_name": "Activation", "inbound_nodes": [[["bn3b_branch2b", 0, 0, {}]]]}, {"config": {"kernel_size": [1, 1], "activation": "linear", "kernel_regularizer": null, "filters": 512, "kernel_constraint": null, "padding": "valid", "dilation_rate": [1, 1], "data_format": "channels_last", "trainable": true, "bias_constraint": null, "kernel_initializer": {"config": {"mode": "fan_avg", "seed": null, "distribution": "uniform", "scale": 1.0}, "class_name": "VarianceScaling"}, "bias_initializer": {"config": {}, "class_name": "Zeros"}, "bias_regularizer": null, "activity_regularizer": null, "strides": [1, 1], "name": "res3b_branch2c", "use_bias": true}, "name": "res3b_branch2c", "class_name": "Conv2D", "inbound_nodes": [[["activation_15", 0, 0, {}]]]}, {"config": {"momentum": 0.99, "center": true, "trainable": true, "scale": true, "moving_variance_initializer": {"config": {}, "class_name": "Ones"}, "beta_initializer": {"config": {}, "class_name": "Zeros"}, "axis": 3, "gamma_constraint": null, "beta_constraint": null, "gamma_initializer": {"config": {}, "class_name": "Ones"}, "gamma_regularizer": null, "moving_mean_initializer": {"config": {}, "class_name": "Zeros"}, "name": "bn3b_branch2c", "epsilon": 0.001, "beta_regularizer": null}, "name": "bn3b_branch2c", "class_name": "BatchNormalization", "inbound_nodes": [[["res3b_branch2c", 0, 0, {}]]]}, {"config": {"name": "add_5", "trainable": true}, "name": "add_5", "class_name": "Add", "inbound_nodes": [[["bn3b_branch2c", 0, 0, {}], ["activation_13", 0, 0, {}]]]}, {"config": {"activation": "relu", "name": "activation_16", "trainable": true}, "name": "activation_16", "class_name": "Activation", "inbound_nodes": [[["add_5", 0, 0, {}]]]}, {"config": {"kernel_size": [1, 1], "activation": "linear", "kernel_regularizer": null, "filters": 128, "kernel_constraint": null, "padding": "valid", "dilation_rate": [1, 1], "data_format": "channels_last", "trainable": true, "bias_constraint": null, "kernel_initializer": {"config": {"mode": "fan_avg", "seed": null, "distribution": "uniform", "scale": 1.0}, "class_name": "VarianceScaling"}, "bias_initializer": {"config": {}, "class_name": "Zeros"}, "bias_regularizer": null, "activity_regularizer": null, "strides": [1, 1], "name": "res3c_branch2a", "use_bias": true}, "name": "res3c_branch2a", "class_name": "Conv2D", "inbound_nodes": [[["activation_16", 0, 0, {}]]]}, {"config": {"momentum": 0.99, "center": true, "trainable": true, "scale": true, "moving_variance_initializer": {"config": {}, "class_name": "Ones"}, "beta_initializer": {"config": {}, "class_name": "Zeros"}, "axis": 3, "gamma_constraint": null, "beta_constraint": null, "gamma_initializer": {"config": {}, "class_name": "Ones"}, "gamma_regularizer": null, "moving_mean_initializer": {"config": {}, "class_name": "Zeros"}, "name": "bn3c_branch2a", "epsilon": 0.001, "beta_regularizer": null}, "name": "bn3c_branch2a", "class_name": "BatchNormalization", "inbound_nodes": [[["res3c_branch2a", 0, 0, {}]]]}, {"config": {"activation": "relu", "name": "activation_17", "trainable": true}, "name": "activation_17", "class_name": "Activation", "inbound_nodes": [[["bn3c_branch2a", 0, 0, {}]]]}, {"config": {"kernel_size": [3, 3], "activation": "linear", "kernel_regularizer": null, "filters": 128, "kernel_constraint": null, "padding": "same", "dilation_rate": [1, 1], "data_format": "channels_last", "trainable": true, "bias_constraint": null, "kernel_initializer": {"config": {"mode": "fan_avg", "seed": null, "distribution": "uniform", "scale": 1.0}, "class_name": "VarianceScaling"}, "bias_initializer": {"config": {}, "class_name": "Zeros"}, "bias_regularizer": null, "activity_regularizer": null, "strides": [1, 1], "name": "res3c_branch2b", "use_bias": true}, "name": "res3c_branch2b", "class_name": "Conv2D", "inbound_nodes": [[["activation_17", 0, 0, {}]]]}, {"config": {"momentum": 0.99, "center": true, "trainable": true, "scale": true, "moving_variance_initializer": {"config": {}, "class_name": "Ones"}, "beta_initializer": {"config": {}, "class_name": "Zeros"}, "axis": 3, "gamma_constraint": null, "beta_constraint": null, "gamma_initializer": {"config": {}, "class_name": "Ones"}, "gamma_regularizer": null, "moving_mean_initializer": {"config": {}, "class_name": "Zeros"}, "name": "bn3c_branch2b", "epsilon": 0.001, "beta_regularizer": null}, "name": "bn3c_branch2b", "class_name": "BatchNormalization", "inbound_nodes": [[["res3c_branch2b", 0, 0, {}]]]}, {"config": {"activation": "relu", "name": "activation_18", "trainable": true}, "name": "activation_18", "class_name": "Activation", "inbound_nodes": [[["bn3c_branch2b", 0, 0, {}]]]}, {"config": {"kernel_size": [1, 1], "activation": "linear", "kernel_regularizer": null, "filters": 512, "kernel_constraint": null, "padding": "valid", "dilation_rate": [1, 1], "data_format": "channels_last", "trainable": true, "bias_constraint": null, "kernel_initializer": {"config": {"mode": "fan_avg", "seed": null, "distribution": "uniform", "scale": 1.0}, "class_name": "VarianceScaling"}, "bias_initializer": {"config": {}, "class_name": "Zeros"}, "bias_regularizer": null, "activity_regularizer": null, "strides": [1, 1], "name": "res3c_branch2c", "use_bias": true}, "name": "res3c_branch2c", "class_name": "Conv2D", "inbound_nodes": [[["activation_18", 0, 0, {}]]]}, {"config": {"momentum": 0.99, "center": true, "trainable": true, "scale": true, "moving_variance_initializer": {"config": {}, "class_name": "Ones"}, "beta_initializer": {"config": {}, "class_name": "Zeros"}, "axis": 3, "gamma_constraint": null, "beta_constraint": null, "gamma_initializer": {"config": {}, "class_name": "Ones"}, "gamma_regularizer": null, "moving_mean_initializer": {"config": {}, "class_name": "Zeros"}, "name": "bn3c_branch2c", "epsilon": 0.001, "beta_regularizer": null}, "name": "bn3c_branch2c", "class_name": "BatchNormalization", "inbound_nodes": [[["res3c_branch2c", 0, 0, {}]]]}, {"config": {"name": "add_6", "trainable": true}, "name": "add_6", "class_name": "Add", "inbound_nodes": [[["bn3c_branch2c", 0, 0, {}], ["activation_16", 0, 0, {}]]]}, {"config": {"activation": "relu", "name": "activation_19", "trainable": true}, "name": "activation_19", "class_name": "Activation", "inbound_nodes": [[["add_6", 0, 0, {}]]]}, {"config": {"kernel_size": [1, 1], "activation": "linear", "kernel_regularizer": null, "filters": 128, "kernel_constraint": null, "padding": "valid", "dilation_rate": [1, 1], "data_format": "channels_last", "trainable": true, "bias_constraint": null, "kernel_initializer": {"config": {"mode": "fan_avg", "seed": null, "distribution": "uniform", "scale": 1.0}, "class_name": "VarianceScaling"}, "bias_initializer": {"config": {}, "class_name": "Zeros"}, "bias_regularizer": null, "activity_regularizer": null, "strides": [1, 1], "name": "res3d_branch2a", "use_bias": true}, "name": "res3d_branch2a", "class_name": "Conv2D", "inbound_nodes": [[["activation_19", 0, 0, {}]]]}, {"config": {"momentum": 0.99, "center": true, "trainable": true, "scale": true, "moving_variance_initializer": {"config": {}, "class_name": "Ones"}, "beta_initializer": {"config": {}, "class_name": "Zeros"}, "axis": 3, "gamma_constraint": null, "beta_constraint": null, "gamma_initializer": {"config": {}, "class_name": "Ones"}, "gamma_regularizer": null, "moving_mean_initializer": {"config": {}, "class_name": "Zeros"}, "name": "bn3d_branch2a", "epsilon": 0.001, "beta_regularizer": null}, "name": "bn3d_branch2a", "class_name": "BatchNormalization", "inbound_nodes": [[["res3d_branch2a", 0, 0, {}]]]}, {"config": {"activation": "relu", "name": "activation_20", "trainable": true}, "name": "activation_20", "class_name": "Activation", "inbound_nodes": [[["bn3d_branch2a", 0, 0, {}]]]}, {"config": {"kernel_size": [3, 3], "activation": "linear", "kernel_regularizer": null, "filters": 128, "kernel_constraint": null, "padding": "same", "dilation_rate": [1, 1], "data_format": "channels_last", "trainable": true, "bias_constraint": null, "kernel_initializer": {"config": {"mode": "fan_avg", "seed": null, "distribution": "uniform", "scale": 1.0}, "class_name": "VarianceScaling"}, "bias_initializer": {"config": {}, "class_name": "Zeros"}, "bias_regularizer": null, "activity_regularizer": null, "strides": [1, 1], "name": "res3d_branch2b", "use_bias": true}, "name": "res3d_branch2b", "class_name": "Conv2D", "inbound_nodes": [[["activation_20", 0, 0, {}]]]}, {"config": {"momentum": 0.99, "center": true, "trainable": true, "scale": true, "moving_variance_initializer": {"config": {}, "class_name": "Ones"}, "beta_initializer": {"config": {}, "class_name": "Zeros"}, "axis": 3, "gamma_constraint": null, "beta_constraint": null, "gamma_initializer": {"config": {}, "class_name": "Ones"}, "gamma_regularizer": null, "moving_mean_initializer": {"config": {}, "class_name": "Zeros"}, "name": "bn3d_branch2b", "epsilon": 0.001, "beta_regularizer": null}, "name": "bn3d_branch2b", "class_name": "BatchNormalization", "inbound_nodes": [[["res3d_branch2b", 0, 0, {}]]]}, {"config": {"activation": "relu", "name": "activation_21", "trainable": true}, "name": "activation_21", "class_name": "Activation", "inbound_nodes": [[["bn3d_branch2b", 0, 0, {}]]]}, {"config": {"kernel_size": [1, 1], "activation": "linear", "kernel_regularizer": null, "filters": 512, "kernel_constraint": null, "padding": "valid", "dilation_rate": [1, 1], "data_format": "channels_last", "trainable": true, "bias_constraint": null, "kernel_initializer": {"config": {"mode": "fan_avg", "seed": null, "distribution": "uniform", "scale": 1.0}, "class_name": "VarianceScaling"}, "bias_initializer": {"config": {}, "class_name": "Zeros"}, "bias_regularizer": null, "activity_regularizer": null, "strides": [1, 1], "name": "res3d_branch2c", "use_bias": true}, "name": "res3d_branch2c", "class_name": "Conv2D", "inbound_nodes": [[["activation_21", 0, 0, {}]]]}, {"config": {"momentum": 0.99, "center": true, "trainable": true, "scale": true, "moving_variance_initializer": {"config": {}, "class_name": "Ones"}, "beta_initializer": {"config": {}, "class_name": "Zeros"}, "axis": 3, "gamma_constraint": null, "beta_constraint": null, "gamma_initializer": {"config": {}, "class_name": "Ones"}, "gamma_regularizer": null, "moving_mean_initializer": {"config": {}, "class_name": "Zeros"}, "name": "bn3d_branch2c", "epsilon": 0.001, "beta_regularizer": null}, "name": "bn3d_branch2c", "class_name": "BatchNormalization", "inbound_nodes": [[["res3d_branch2c", 0, 0, {}]]]}, {"config": {"name": "add_7", "trainable": true}, "name": "add_7", "class_name": "Add", "inbound_nodes": [[["bn3d_branch2c", 0, 0, {}], ["activation_19", 0, 0, {}]]]}, {"config": {"activation": "relu", "name": "activation_22", "trainable": true}, "name": "activation_22", "class_name": "Activation", "inbound_nodes": [[["add_7", 0, 0, {}]]]}, {"config": {"kernel_size": [1, 1], "activation": "linear", "kernel_regularizer": null, "filters": 256, "kernel_constraint": null, "padding": "valid", "dilation_rate": [1, 1], "data_format": "channels_last", "trainable": true, "bias_constraint": null, "kernel_initializer": {"config": {"mode": "fan_avg", "seed": null, "distribution": "uniform", "scale": 1.0}, "class_name": "VarianceScaling"}, "bias_initializer": {"config": {}, "class_name": "Zeros"}, "bias_regularizer": null, "activity_regularizer": null, "strides": [2, 2], "name": "res4a_branch2a", "use_bias": true}, "name": "res4a_branch2a", "class_name": "Conv2D", "inbound_nodes": [[["activation_22", 0, 0, {}]]]}, {"config": {"momentum": 0.99, "center": true, "trainable": true, "scale": true, "moving_variance_initializer": {"config": {}, "class_name": "Ones"}, "beta_initializer": {"config": {}, "class_name": "Zeros"}, "axis": 3, "gamma_constraint": null, "beta_constraint": null, "gamma_initializer": {"config": {}, "class_name": "Ones"}, "gamma_regularizer": null, "moving_mean_initializer": {"config": {}, "class_name": "Zeros"}, "name": "bn4a_branch2a", "epsilon": 0.001, "beta_regularizer": null}, "name": "bn4a_branch2a", "class_name": "BatchNormalization", "inbound_nodes": [[["res4a_branch2a", 0, 0, {}]]]}, {"config": {"activation": "relu", "name": "activation_23", "trainable": true}, "name": "activation_23", "class_name": "Activation", "inbound_nodes": [[["bn4a_branch2a", 0, 0, {}]]]}, {"config": {"kernel_size": [3, 3], "activation": "linear", "kernel_regularizer": null, "filters": 256, "kernel_constraint": null, "padding": "same", "dilation_rate": [1, 1], "data_format": "channels_last", "trainable": true, "bias_constraint": null, "kernel_initializer": {"config": {"mode": "fan_avg", "seed": null, "distribution": "uniform", "scale": 1.0}, "class_name": "VarianceScaling"}, "bias_initializer": {"config": {}, "class_name": "Zeros"}, "bias_regularizer": null, "activity_regularizer": null, "strides": [1, 1], "name": "res4a_branch2b", "use_bias": true}, "name": "res4a_branch2b", "class_name": "Conv2D", "inbound_nodes": [[["activation_23", 0, 0, {}]]]}, {"config": {"momentum": 0.99, "center": true, "trainable": true, "scale": true, "moving_variance_initializer": {"config": {}, "class_name": "Ones"}, "beta_initializer": {"config": {}, "class_name": "Zeros"}, "axis": 3, "gamma_constraint": null, "beta_constraint": null, "gamma_initializer": {"config": {}, "class_name": "Ones"}, "gamma_regularizer": null, "moving_mean_initializer": {"config": {}, "class_name": "Zeros"}, "name": "bn4a_branch2b", "epsilon": 0.001, "beta_regularizer": null}, "name": "bn4a_branch2b", "class_name": "BatchNormalization", "inbound_nodes": [[["res4a_branch2b", 0, 0, {}]]]}, {"config": {"activation": "relu", "name": "activation_24", "trainable": true}, "name": "activation_24", "class_name": "Activation", "inbound_nodes": [[["bn4a_branch2b", 0, 0, {}]]]}, {"config": {"kernel_size": [1, 1], "activation": "linear", "kernel_regularizer": null, "filters": 1024, "kernel_constraint": null, "padding": "valid", "dilation_rate": [1, 1], "data_format": "channels_last", "trainable": true, "bias_constraint": null, "kernel_initializer": {"config": {"mode": "fan_avg", "seed": null, "distribution": "uniform", "scale": 1.0}, "class_name": "VarianceScaling"}, "bias_initializer": {"config": {}, "class_name": "Zeros"}, "bias_regularizer": null, "activity_regularizer": null, "strides": [1, 1], "name": "res4a_branch2c", "use_bias": true}, "name": "res4a_branch2c", "class_name": "Conv2D", "inbound_nodes": [[["activation_24", 0, 0, {}]]]}, {"config": {"kernel_size": [1, 1], "activation": "linear", "kernel_regularizer": null, "filters": 1024, "kernel_constraint": null, "padding": "valid", "dilation_rate": [1, 1], "data_format": "channels_last", "trainable": true, "bias_constraint": null, "kernel_initializer": {"config": {"mode": "fan_avg", "seed": null, "distribution": "uniform", "scale": 1.0}, "class_name": "VarianceScaling"}, "bias_initializer": {"config": {}, "class_name": "Zeros"}, "bias_regularizer": null, "activity_regularizer": null, "strides": [2, 2], "name": "res4a_branch1", "use_bias": true}, "name": "res4a_branch1", "class_name": "Conv2D", "inbound_nodes": [[["activation_22", 0, 0, {}]]]}, {"config": {"momentum": 0.99, "center": true, "trainable": true, "scale": true, "moving_variance_initializer": {"config": {}, "class_name": "Ones"}, "beta_initializer": {"config": {}, "class_name": "Zeros"}, "axis": 3, "gamma_constraint": null, "beta_constraint": null, "gamma_initializer": {"config": {}, "class_name": "Ones"}, "gamma_regularizer": null, "moving_mean_initializer": {"config": {}, "class_name": "Zeros"}, "name": "bn4a_branch2c", "epsilon": 0.001, "beta_regularizer": null}, "name": "bn4a_branch2c", "class_name": "BatchNormalization", "inbound_nodes": [[["res4a_branch2c", 0, 0, {}]]]}, {"config": {"momentum": 0.99, "center": true, "trainable": true, "scale": true, "moving_variance_initializer": {"config": {}, "class_name": "Ones"}, "beta_initializer": {"config": {}, "class_name": "Zeros"}, "axis": 3, "gamma_constraint": null, "beta_constraint": null, "gamma_initializer": {"config": {}, "class_name": "Ones"}, "gamma_regularizer": null, "moving_mean_initializer": {"config": {}, "class_name": "Zeros"}, "name": "bn4a_branch1", "epsilon": 0.001, "beta_regularizer": null}, "name": "bn4a_branch1", "class_name": "BatchNormalization", "inbound_nodes": [[["res4a_branch1", 0, 0, {}]]]}, {"config": {"name": "add_8", "trainable": true}, "name": "add_8", "class_name": "Add", "inbound_nodes": [[["bn4a_branch2c", 0, 0, {}], ["bn4a_branch1", 0, 0, {}]]]}, {"config": {"activation": "relu", "name": "activation_25", "trainable": true}, "name": "activation_25", "class_name": "Activation", "inbound_nodes": [[["add_8", 0, 0, {}]]]}, {"config": {"kernel_size": [1, 1], "activation": "linear", "kernel_regularizer": null, "filters": 256, "kernel_constraint": null, "padding": "valid", "dilation_rate": [1, 1], "data_format": "channels_last", "trainable": true, "bias_constraint": null, "kernel_initializer": {"config": {"mode": "fan_avg", "seed": null, "distribution": "uniform", "scale": 1.0}, "class_name": "VarianceScaling"}, "bias_initializer": {"config": {}, "class_name": "Zeros"}, "bias_regularizer": null, "activity_regularizer": null, "strides": [1, 1], "name": "res4b_branch2a", "use_bias": true}, "name": "res4b_branch2a", "class_name": "Conv2D", "inbound_nodes": [[["activation_25", 0, 0, {}]]]}, {"config": {"momentum": 0.99, "center": true, "trainable": true, "scale": true, "moving_variance_initializer": {"config": {}, "class_name": "Ones"}, "beta_initializer": {"config": {}, "class_name": "Zeros"}, "axis": 3, "gamma_constraint": null, "beta_constraint": null, "gamma_initializer": {"config": {}, "class_name": "Ones"}, "gamma_regularizer": null, "moving_mean_initializer": {"config": {}, "class_name": "Zeros"}, "name": "bn4b_branch2a", "epsilon": 0.001, "beta_regularizer": null}, "name": "bn4b_branch2a", "class_name": "BatchNormalization", "inbound_nodes": [[["res4b_branch2a", 0, 0, {}]]]}, {"config": {"activation": "relu", "name": "activation_26", "trainable": true}, "name": "activation_26", "class_name": "Activation", "inbound_nodes": [[["bn4b_branch2a", 0, 0, {}]]]}, {"config": {"kernel_size": [3, 3], "activation": "linear", "kernel_regularizer": null, "filters": 256, "kernel_constraint": null, "padding": "same", "dilation_rate": [1, 1], "data_format": "channels_last", "trainable": true, "bias_constraint": null, "kernel_initializer": {"config": {"mode": "fan_avg", "seed": null, "distribution": "uniform", "scale": 1.0}, "class_name": "VarianceScaling"}, "bias_initializer": {"config": {}, "class_name": "Zeros"}, "bias_regularizer": null, "activity_regularizer": null, "strides": [1, 1], "name": "res4b_branch2b", "use_bias": true}, "name": "res4b_branch2b", "class_name": "Conv2D", "inbound_nodes": [[["activation_26", 0, 0, {}]]]}, {"config": {"momentum": 0.99, "center": true, "trainable": true, "scale": true, "moving_variance_initializer": {"config": {}, "class_name": "Ones"}, "beta_initializer": {"config": {}, "class_name": "Zeros"}, "axis": 3, "gamma_constraint": null, "beta_constraint": null, "gamma_initializer": {"config": {}, "class_name": "Ones"}, "gamma_regularizer": null, "moving_mean_initializer": {"config": {}, "class_name": "Zeros"}, "name": "bn4b_branch2b", "epsilon": 0.001, "beta_regularizer": null}, "name": "bn4b_branch2b", "class_name": "BatchNormalization", "inbound_nodes": [[["res4b_branch2b", 0, 0, {}]]]}, {"config": {"activation": "relu", "name": "activation_27", "trainable": true}, "name": "activation_27", "class_name": "Activation", "inbound_nodes": [[["bn4b_branch2b", 0, 0, {}]]]}, {"config": {"kernel_size": [1, 1], "activation": "linear", "kernel_regularizer": null, "filters": 1024, "kernel_constraint": null, "padding": "valid", "dilation_rate": [1, 1], "data_format": "channels_last", "trainable": true, "bias_constraint": null, "kernel_initializer": {"config": {"mode": "fan_avg", "seed": null, "distribution": "uniform", "scale": 1.0}, "class_name": "VarianceScaling"}, "bias_initializer": {"config": {}, "class_name": "Zeros"}, "bias_regularizer": null, "activity_regularizer": null, "strides": [1, 1], "name": "res4b_branch2c", "use_bias": true}, "name": "res4b_branch2c", "class_name": "Conv2D", "inbound_nodes": [[["activation_27", 0, 0, {}]]]}, {"config": {"momentum": 0.99, "center": true, "trainable": true, "scale": true, "moving_variance_initializer": {"config": {}, "class_name": "Ones"}, "beta_initializer": {"config": {}, "class_name": "Zeros"}, "axis": 3, "gamma_constraint": null, "beta_constraint": null, "gamma_initializer": {"config": {}, "class_name": "Ones"}, "gamma_regularizer": null, "moving_mean_initializer": {"config": {}, "class_name": "Zeros"}, "name": "bn4b_branch2c", "epsilon": 0.001, "beta_regularizer": null}, "name": "bn4b_branch2c", "class_name": "BatchNormalization", "inbound_nodes": [[["res4b_branch2c", 0, 0, {}]]]}, {"config": {"name": "add_9", "trainable": true}, "name": "add_9", "class_name": "Add", "inbound_nodes": [[["bn4b_branch2c", 0, 0, {}], ["activation_25", 0, 0, {}]]]}, {"config": {"activation": "relu", "name": "activation_28", "trainable": true}, "name": "activation_28", "class_name": "Activation", "inbound_nodes": [[["add_9", 0, 0, {}]]]}, {"config": {"kernel_size": [1, 1], "activation": "linear", "kernel_regularizer": null, "filters": 256, "kernel_constraint": null, "padding": "valid", "dilation_rate": [1, 1], "data_format": "channels_last", "trainable": true, "bias_constraint": null, "kernel_initializer": {"config": {"mode": "fan_avg", "seed": null, "distribution": "uniform", "scale": 1.0}, "class_name": "VarianceScaling"}, "bias_initializer": {"config": {}, "class_name": "Zeros"}, "bias_regularizer": null, "activity_regularizer": null, "strides": [1, 1], "name": "res4c_branch2a", "use_bias": true}, "name": "res4c_branch2a", "class_name": "Conv2D", "inbound_nodes": [[["activation_28", 0, 0, {}]]]}, {"config": {"momentum": 0.99, "center": true, "trainable": true, "scale": true, "moving_variance_initializer": {"config": {}, "class_name": "Ones"}, "beta_initializer": {"config": {}, "class_name": "Zeros"}, "axis": 3, "gamma_constraint": null, "beta_constraint": null, "gamma_initializer": {"config": {}, "class_name": "Ones"}, "gamma_regularizer": null, "moving_mean_initializer": {"config": {}, "class_name": "Zeros"}, "name": "bn4c_branch2a", "epsilon": 0.001, "beta_regularizer": null}, "name": "bn4c_branch2a", "class_name": "BatchNormalization", "inbound_nodes": [[["res4c_branch2a", 0, 0, {}]]]}, {"config": {"activation": "relu", "name": "activation_29", "trainable": true}, "name": "activation_29", "class_name": "Activation", "inbound_nodes": [[["bn4c_branch2a", 0, 0, {}]]]}, {"config": {"kernel_size": [3, 3], "activation": "linear", "kernel_regularizer": null, "filters": 256, "kernel_constraint": null, "padding": "same", "dilation_rate": [1, 1], "data_format": "channels_last", "trainable": true, "bias_constraint": null, "kernel_initializer": {"config": {"mode": "fan_avg", "seed": null, "distribution": "uniform", "scale": 1.0}, "class_name": "VarianceScaling"}, "bias_initializer": {"config": {}, "class_name": "Zeros"}, "bias_regularizer": null, "activity_regularizer": null, "strides": [1, 1], "name": "res4c_branch2b", "use_bias": true}, "name": "res4c_branch2b", "class_name": "Conv2D", "inbound_nodes": [[["activation_29", 0, 0, {}]]]}, {"config": {"momentum": 0.99, "center": true, "trainable": true, "scale": true, "moving_variance_initializer": {"config": {}, "class_name": "Ones"}, "beta_initializer": {"config": {}, "class_name": "Zeros"}, "axis": 3, "gamma_constraint": null, "beta_constraint": null, "gamma_initializer": {"config": {}, "class_name": "Ones"}, "gamma_regularizer": null, "moving_mean_initializer": {"config": {}, "class_name": "Zeros"}, "name": "bn4c_branch2b", "epsilon": 0.001, "beta_regularizer": null}, "name": "bn4c_branch2b", "class_name": "BatchNormalization", "inbound_nodes": [[["res4c_branch2b", 0, 0, {}]]]}, {"config": {"activation": "relu", "name": "activation_30", "trainable": true}, "name": "activation_30", "class_name": "Activation", "inbound_nodes": [[["bn4c_branch2b", 0, 0, {}]]]}, {"config": {"kernel_size": [1, 1], "activation": "linear", "kernel_regularizer": null, "filters": 1024, "kernel_constraint": null, "padding": "valid", "dilation_rate": [1, 1], "data_format": "channels_last", "trainable": true, "bias_constraint": null, "kernel_initializer": {"config": {"mode": "fan_avg", "seed": null, "distribution": "uniform", "scale": 1.0}, "class_name": "VarianceScaling"}, "bias_initializer": {"config": {}, "class_name": "Zeros"}, "bias_regularizer": null, "activity_regularizer": null, "strides": [1, 1], "name": "res4c_branch2c", "use_bias": true}, "name": "res4c_branch2c", "class_name": "Conv2D", "inbound_nodes": [[["activation_30", 0, 0, {}]]]}, {"config": {"momentum": 0.99, "center": true, "trainable": true, "scale": true, "moving_variance_initializer": {"config": {}, "class_name": "Ones"}, "beta_initializer": {"config": {}, "class_name": "Zeros"}, "axis": 3, "gamma_constraint": null, "beta_constraint": null, "gamma_initializer": {"config": {}, "class_name": "Ones"}, "gamma_regularizer": null, "moving_mean_initializer": {"config": {}, "class_name": "Zeros"}, "name": "bn4c_branch2c", "epsilon": 0.001, "beta_regularizer": null}, "name": "bn4c_branch2c", "class_name": "BatchNormalization", "inbound_nodes": [[["res4c_branch2c", 0, 0, {}]]]}, {"config": {"name": "add_10", "trainable": true}, "name": "add_10", "class_name": "Add", "inbound_nodes": [[["bn4c_branch2c", 0, 0, {}], ["activation_28", 0, 0, {}]]]}, {"config": {"activation": "relu", "name": "activation_31", "trainable": true}, "name": "activation_31", "class_name": "Activation", "inbound_nodes": [[["add_10", 0, 0, {}]]]}, {"config": {"kernel_size": [1, 1], "activation": "linear", "kernel_regularizer": null, "filters": 256, "kernel_constraint": null, "padding": "valid", "dilation_rate": [1, 1], "data_format": "channels_last", "trainable": true, "bias_constraint": null, "kernel_initializer": {"config": {"mode": "fan_avg", "seed": null, "distribution": "uniform", "scale": 1.0}, "class_name": "VarianceScaling"}, "bias_initializer": {"config": {}, "class_name": "Zeros"}, "bias_regularizer": null, "activity_regularizer": null, "strides": [1, 1], "name": "res4d_branch2a", "use_bias": true}, "name": "res4d_branch2a", "class_name": "Conv2D", "inbound_nodes": [[["activation_31", 0, 0, {}]]]}, {"config": {"momentum": 0.99, "center": true, "trainable": true, "scale": true, "moving_variance_initializer": {"config": {}, "class_name": "Ones"}, "beta_initializer": {"config": {}, "class_name": "Zeros"}, "axis": 3, "gamma_constraint": null, "beta_constraint": null, "gamma_initializer": {"config": {}, "class_name": "Ones"}, "gamma_regularizer": null, "moving_mean_initializer": {"config": {}, "class_name": "Zeros"}, "name": "bn4d_branch2a", "epsilon": 0.001, "beta_regularizer": null}, "name": "bn4d_branch2a", "class_name": "BatchNormalization", "inbound_nodes": [[["res4d_branch2a", 0, 0, {}]]]}, {"config": {"activation": "relu", "name": "activation_32", "trainable": true}, "name": "activation_32", "class_name": "Activation", "inbound_nodes": [[["bn4d_branch2a", 0, 0, {}]]]}, {"config": {"kernel_size": [3, 3], "activation": "linear", "kernel_regularizer": null, "filters": 256, "kernel_constraint": null, "padding": "same", "dilation_rate": [1, 1], "data_format": "channels_last", "trainable": true, "bias_constraint": null, "kernel_initializer": {"config": {"mode": "fan_avg", "seed": null, "distribution": "uniform", "scale": 1.0}, "class_name": "VarianceScaling"}, "bias_initializer": {"config": {}, "class_name": "Zeros"}, "bias_regularizer": null, "activity_regularizer": null, "strides": [1, 1], "name": "res4d_branch2b", "use_bias": true}, "name": "res4d_branch2b", "class_name": "Conv2D", "inbound_nodes": [[["activation_32", 0, 0, {}]]]}, {"config": {"momentum": 0.99, "center": true, "trainable": true, "scale": true, "moving_variance_initializer": {"config": {}, "class_name": "Ones"}, "beta_initializer": {"config": {}, "class_name": "Zeros"}, "axis": 3, "gamma_constraint": null, "beta_constraint": null, "gamma_initializer": {"config": {}, "class_name": "Ones"}, "gamma_regularizer": null, "moving_mean_initializer": {"config": {}, "class_name": "Zeros"}, "name": "bn4d_branch2b", "epsilon": 0.001, "beta_regularizer": null}, "name": "bn4d_branch2b", "class_name": "BatchNormalization", "inbound_nodes": [[["res4d_branch2b", 0, 0, {}]]]}, {"config": {"activation": "relu", "name": "activation_33", "trainable": true}, "name": "activation_33", "class_name": "Activation", "inbound_nodes": [[["bn4d_branch2b", 0, 0, {}]]]}, {"config": {"kernel_size": [1, 1], "activation": "linear", "kernel_regularizer": null, "filters": 1024, "kernel_constraint": null, "padding": "valid", "dilation_rate": [1, 1], "data_format": "channels_last", "trainable": true, "bias_constraint": null, "kernel_initializer": {"config": {"mode": "fan_avg", "seed": null, "distribution": "uniform", "scale": 1.0}, "class_name": "VarianceScaling"}, "bias_initializer": {"config": {}, "class_name": "Zeros"}, "bias_regularizer": null, "activity_regularizer": null, "strides": [1, 1], "name": "res4d_branch2c", "use_bias": true}, "name": "res4d_branch2c", "class_name": "Conv2D", "inbound_nodes": [[["activation_33", 0, 0, {}]]]}, {"config": {"momentum": 0.99, "center": true, "trainable": true, "scale": true, "moving_variance_initializer": {"config": {}, "class_name": "Ones"}, "beta_initializer": {"config": {}, "class_name": "Zeros"}, "axis": 3, "gamma_constraint": null, "beta_constraint": null, "gamma_initializer": {"config": {}, "class_name": "Ones"}, "gamma_regularizer": null, "moving_mean_initializer": {"config": {}, "class_name": "Zeros"}, "name": "bn4d_branch2c", "epsilon": 0.001, "beta_regularizer": null}, "name": "bn4d_branch2c", "class_name": "BatchNormalization", "inbound_nodes": [[["res4d_branch2c", 0, 0, {}]]]}, {"config": {"name": "add_11", "trainable": true}, "name": "add_11", "class_name": "Add", "inbound_nodes": [[["bn4d_branch2c", 0, 0, {}], ["activation_31", 0, 0, {}]]]}, {"config": {"activation": "relu", "name": "activation_34", "trainable": true}, "name": "activation_34", "class_name": "Activation", "inbound_nodes": [[["add_11", 0, 0, {}]]]}, {"config": {"kernel_size": [1, 1], "activation": "linear", "kernel_regularizer": null, "filters": 256, "kernel_constraint": null, "padding": "valid", "dilation_rate": [1, 1], "data_format": "channels_last", "trainable": true, "bias_constraint": null, "kernel_initializer": {"config": {"mode": "fan_avg", "seed": null, "distribution": "uniform", "scale": 1.0}, "class_name": "VarianceScaling"}, "bias_initializer": {"config": {}, "class_name": "Zeros"}, "bias_regularizer": null, "activity_regularizer": null, "strides": [1, 1], "name": "res4e_branch2a", "use_bias": true}, "name": "res4e_branch2a", "class_name": "Conv2D", "inbound_nodes": [[["activation_34", 0, 0, {}]]]}, {"config": {"momentum": 0.99, "center": true, "trainable": true, "scale": true, "moving_variance_initializer": {"config": {}, "class_name": "Ones"}, "beta_initializer": {"config": {}, "class_name": "Zeros"}, "axis": 3, "gamma_constraint": null, "beta_constraint": null, "gamma_initializer": {"config": {}, "class_name": "Ones"}, "gamma_regularizer": null, "moving_mean_initializer": {"config": {}, "class_name": "Zeros"}, "name": "bn4e_branch2a", "epsilon": 0.001, "beta_regularizer": null}, "name": "bn4e_branch2a", "class_name": "BatchNormalization", "inbound_nodes": [[["res4e_branch2a", 0, 0, {}]]]}, {"config": {"activation": "relu", "name": "activation_35", "trainable": true}, "name": "activation_35", "class_name": "Activation", "inbound_nodes": [[["bn4e_branch2a", 0, 0, {}]]]}, {"config": {"kernel_size": [3, 3], "activation": "linear", "kernel_regularizer": null, "filters": 256, "kernel_constraint": null, "padding": "same", "dilation_rate": [1, 1], "data_format": "channels_last", "trainable": true, "bias_constraint": null, "kernel_initializer": {"config": {"mode": "fan_avg", "seed": null, "distribution": "uniform", "scale": 1.0}, "class_name": "VarianceScaling"}, "bias_initializer": {"config": {}, "class_name": "Zeros"}, "bias_regularizer": null, "activity_regularizer": null, "strides": [1, 1], "name": "res4e_branch2b", "use_bias": true}, "name": "res4e_branch2b", "class_name": "Conv2D", "inbound_nodes": [[["activation_35", 0, 0, {}]]]}, {"config": {"momentum": 0.99, "center": true, "trainable": true, "scale": true, "moving_variance_initializer": {"config": {}, "class_name": "Ones"}, "beta_initializer": {"config": {}, "class_name": "Zeros"}, "axis": 3, "gamma_constraint": null, "beta_constraint": null, "gamma_initializer": {"config": {}, "class_name": "Ones"}, "gamma_regularizer": null, "moving_mean_initializer": {"config": {}, "class_name": "Zeros"}, "name": "bn4e_branch2b", "epsilon": 0.001, "beta_regularizer": null}, "name": "bn4e_branch2b", "class_name": "BatchNormalization", "inbound_nodes": [[["res4e_branch2b", 0, 0, {}]]]}, {"config": {"activation": "relu", "name": "activation_36", "trainable": true}, "name": "activation_36", "class_name": "Activation", "inbound_nodes": [[["bn4e_branch2b", 0, 0, {}]]]}, {"config": {"kernel_size": [1, 1], "activation": "linear", "kernel_regularizer": null, "filters": 1024, "kernel_constraint": null, "padding": "valid", "dilation_rate": [1, 1], "data_format": "channels_last", "trainable": true, "bias_constraint": null, "kernel_initializer": {"config": {"mode": "fan_avg", "seed": null, "distribution": "uniform", "scale": 1.0}, "class_name": "VarianceScaling"}, "bias_initializer": {"config": {}, "class_name": "Zeros"}, "bias_regularizer": null, "activity_regularizer": null, "strides": [1, 1], "name": "res4e_branch2c", "use_bias": true}, "name": "res4e_branch2c", "class_name": "Conv2D", "inbound_nodes": [[["activation_36", 0, 0, {}]]]}, {"config": {"momentum": 0.99, "center": true, "trainable": true, "scale": true, "moving_variance_initializer": {"config": {}, "class_name": "Ones"}, "beta_initializer": {"config": {}, "class_name": "Zeros"}, "axis": 3, "gamma_constraint": null, "beta_constraint": null, "gamma_initializer": {"config": {}, "class_name": "Ones"}, "gamma_regularizer": null, "moving_mean_initializer": {"config": {}, "class_name": "Zeros"}, "name": "bn4e_branch2c", "epsilon": 0.001, "beta_regularizer": null}, "name": "bn4e_branch2c", "class_name": "BatchNormalization", "inbound_nodes": [[["res4e_branch2c", 0, 0, {}]]]}, {"config": {"name": "add_12", "trainable": true}, "name": "add_12", "class_name": "Add", "inbound_nodes": [[["bn4e_branch2c", 0, 0, {}], ["activation_34", 0, 0, {}]]]}, {"config": {"activation": "relu", "name": "activation_37", "trainable": true}, "name": "activation_37", "class_name": "Activation", "inbound_nodes": [[["add_12", 0, 0, {}]]]}, {"config": {"kernel_size": [1, 1], "activation": "linear", "kernel_regularizer": null, "filters": 256, "kernel_constraint": null, "padding": "valid", "dilation_rate": [1, 1], "data_format": "channels_last", "trainable": true, "bias_constraint": null, "kernel_initializer": {"config": {"mode": "fan_avg", "seed": null, "distribution": "uniform", "scale": 1.0}, "class_name": "VarianceScaling"}, "bias_initializer": {"config": {}, "class_name": "Zeros"}, "bias_regularizer": null, "activity_regularizer": null, "strides": [1, 1], "name": "res4f_branch2a", "use_bias": true}, "name": "res4f_branch2a", "class_name": "Conv2D", "inbound_nodes": [[["activation_37", 0, 0, {}]]]}, {"config": {"momentum": 0.99, "center": true, "trainable": true, "scale": true, "moving_variance_initializer": {"config": {}, "class_name": "Ones"}, "beta_initializer": {"config": {}, "class_name": "Zeros"}, "axis": 3, "gamma_constraint": null, "beta_constraint": null, "gamma_initializer": {"config": {}, "class_name": "Ones"}, "gamma_regularizer": null, "moving_mean_initializer": {"config": {}, "class_name": "Zeros"}, "name": "bn4f_branch2a", "epsilon": 0.001, "beta_regularizer": null}, "name": "bn4f_branch2a", "class_name": "BatchNormalization", "inbound_nodes": [[["res4f_branch2a", 0, 0, {}]]]}, {"config": {"activation": "relu", "name": "activation_38", "trainable": true}, "name": "activation_38", "class_name": "Activation", "inbound_nodes": [[["bn4f_branch2a", 0, 0, {}]]]}, {"config": {"kernel_size": [3, 3], "activation": "linear", "kernel_regularizer": null, "filters": 256, "kernel_constraint": null, "padding": "same", "dilation_rate": [1, 1], "data_format": "channels_last", "trainable": true, "bias_constraint": null, "kernel_initializer": {"config": {"mode": "fan_avg", "seed": null, "distribution": "uniform", "scale": 1.0}, "class_name": "VarianceScaling"}, "bias_initializer": {"config": {}, "class_name": "Zeros"}, "bias_regularizer": null, "activity_regularizer": null, "strides": [1, 1], "name": "res4f_branch2b", "use_bias": true}, "name": "res4f_branch2b", "class_name": "Conv2D", "inbound_nodes": [[["activation_38", 0, 0, {}]]]}, {"config": {"momentum": 0.99, "center": true, "trainable": true, "scale": true, "moving_variance_initializer": {"config": {}, "class_name": "Ones"}, "beta_initializer": {"config": {}, "class_name": "Zeros"}, "axis": 3, "gamma_constraint": null, "beta_constraint": null, "gamma_initializer": {"config": {}, "class_name": "Ones"}, "gamma_regularizer": null, "moving_mean_initializer": {"config": {}, "class_name": "Zeros"}, "name": "bn4f_branch2b", "epsilon": 0.001, "beta_regularizer": null}, "name": "bn4f_branch2b", "class_name": "BatchNormalization", "inbound_nodes": [[["res4f_branch2b", 0, 0, {}]]]}, {"config": {"activation": "relu", "name": "activation_39", "trainable": true}, "name": "activation_39", "class_name": "Activation", "inbound_nodes": [[["bn4f_branch2b", 0, 0, {}]]]}, {"config": {"kernel_size": [1, 1], "activation": "linear", "kernel_regularizer": null, "filters": 1024, "kernel_constraint": null, "padding": "valid", "dilation_rate": [1, 1], "data_format": "channels_last", "trainable": true, "bias_constraint": null, "kernel_initializer": {"config": {"mode": "fan_avg", "seed": null, "distribution": "uniform", "scale": 1.0}, "class_name": "VarianceScaling"}, "bias_initializer": {"config": {}, "class_name": "Zeros"}, "bias_regularizer": null, "activity_regularizer": null, "strides": [1, 1], "name": "res4f_branch2c", "use_bias": true}, "name": "res4f_branch2c", "class_name": "Conv2D", "inbound_nodes": [[["activation_39", 0, 0, {}]]]}, {"config": {"momentum": 0.99, "center": true, "trainable": true, "scale": true, "moving_variance_initializer": {"config": {}, "class_name": "Ones"}, "beta_initializer": {"config": {}, "class_name": "Zeros"}, "axis": 3, "gamma_constraint": null, "beta_constraint": null, "gamma_initializer": {"config": {}, "class_name": "Ones"}, "gamma_regularizer": null, "moving_mean_initializer": {"config": {}, "class_name": "Zeros"}, "name": "bn4f_branch2c", "epsilon": 0.001, "beta_regularizer": null}, "name": "bn4f_branch2c", "class_name": "BatchNormalization", "inbound_nodes": [[["res4f_branch2c", 0, 0, {}]]]}, {"config": {"name": "add_13", "trainable": true}, "name": "add_13", "class_name": "Add", "inbound_nodes": [[["bn4f_branch2c", 0, 0, {}], ["activation_37", 0, 0, {}]]]}, {"config": {"activation": "relu", "name": "activation_40", "trainable": true}, "name": "activation_40", "class_name": "Activation", "inbound_nodes": [[["add_13", 0, 0, {}]]]}, {"config": {"kernel_size": [1, 1], "activation": "linear", "kernel_regularizer": null, "filters": 512, "kernel_constraint": null, "padding": "valid", "dilation_rate": [1, 1], "data_format": "channels_last", "trainable": true, "bias_constraint": null, "kernel_initializer": {"config": {"mode": "fan_avg", "seed": null, "distribution": "uniform", "scale": 1.0}, "class_name": "VarianceScaling"}, "bias_initializer": {"config": {}, "class_name": "Zeros"}, "bias_regularizer": null, "activity_regularizer": null, "strides": [2, 2], "name": "res5a_branch2a", "use_bias": true}, "name": "res5a_branch2a", "class_name": "Conv2D", "inbound_nodes": [[["activation_40", 0, 0, {}]]]}, {"config": {"momentum": 0.99, "center": true, "trainable": true, "scale": true, "moving_variance_initializer": {"config": {}, "class_name": "Ones"}, "beta_initializer": {"config": {}, "class_name": "Zeros"}, "axis": 3, "gamma_constraint": null, "beta_constraint": null, "gamma_initializer": {"config": {}, "class_name": "Ones"}, "gamma_regularizer": null, "moving_mean_initializer": {"config": {}, "class_name": "Zeros"}, "name": "bn5a_branch2a", "epsilon": 0.001, "beta_regularizer": null}, "name": "bn5a_branch2a", "class_name": "BatchNormalization", "inbound_nodes": [[["res5a_branch2a", 0, 0, {}]]]}, {"config": {"activation": "relu", "name": "activation_41", "trainable": true}, "name": "activation_41", "class_name": "Activation", "inbound_nodes": [[["bn5a_branch2a", 0, 0, {}]]]}, {"config": {"kernel_size": [3, 3], "activation": "linear", "kernel_regularizer": null, "filters": 512, "kernel_constraint": null, "padding": "same", "dilation_rate": [1, 1], "data_format": "channels_last", "trainable": true, "bias_constraint": null, "kernel_initializer": {"config": {"mode": "fan_avg", "seed": null, "distribution": "uniform", "scale": 1.0}, "class_name": "VarianceScaling"}, "bias_initializer": {"config": {}, "class_name": "Zeros"}, "bias_regularizer": null, "activity_regularizer": null, "strides": [1, 1], "name": "res5a_branch2b", "use_bias": true}, "name": "res5a_branch2b", "class_name": "Conv2D", "inbound_nodes": [[["activation_41", 0, 0, {}]]]}, {"config": {"momentum": 0.99, "center": true, "trainable": true, "scale": true, "moving_variance_initializer": {"config": {}, "class_name": "Ones"}, "beta_initializer": {"config": {}, "class_name": "Zeros"}, "axis": 3, "gamma_constraint": null, "beta_constraint": null, "gamma_initializer": {"config": {}, "class_name": "Ones"}, "gamma_regularizer": null, "moving_mean_initializer": {"config": {}, "class_name": "Zeros"}, "name": "bn5a_branch2b", "epsilon": 0.001, "beta_regularizer": null}, "name": "bn5a_branch2b", "class_name": "BatchNormalization", "inbound_nodes": [[["res5a_branch2b", 0, 0, {}]]]}, {"config": {"activation": "relu", "name": "activation_42", "trainable": true}, "name": "activation_42", "class_name": "Activation", "inbound_nodes": [[["bn5a_branch2b", 0, 0, {}]]]}, {"config": {"kernel_size": [1, 1], "activation": "linear", "kernel_regularizer": null, "filters": 2048, "kernel_constraint": null, "padding": "valid", "dilation_rate": [1, 1], "data_format": "channels_last", "trainable": true, "bias_constraint": null, "kernel_initializer": {"config": {"mode": "fan_avg", "seed": null, "distribution": "uniform", "scale": 1.0}, "class_name": "VarianceScaling"}, "bias_initializer": {"config": {}, "class_name": "Zeros"}, "bias_regularizer": null, "activity_regularizer": null, "strides": [1, 1], "name": "res5a_branch2c", "use_bias": true}, "name": "res5a_branch2c", "class_name": "Conv2D", "inbound_nodes": [[["activation_42", 0, 0, {}]]]}, {"config": {"kernel_size": [1, 1], "activation": "linear", "kernel_regularizer": null, "filters": 2048, "kernel_constraint": null, "padding": "valid", "dilation_rate": [1, 1], "data_format": "channels_last", "trainable": true, "bias_constraint": null, "kernel_initializer": {"config": {"mode": "fan_avg", "seed": null, "distribution": "uniform", "scale": 1.0}, "class_name": "VarianceScaling"}, "bias_initializer": {"config": {}, "class_name": "Zeros"}, "bias_regularizer": null, "activity_regularizer": null, "strides": [2, 2], "name": "res5a_branch1", "use_bias": true}, "name": "res5a_branch1", "class_name": "Conv2D", "inbound_nodes": [[["activation_40", 0, 0, {}]]]}, {"config": {"momentum": 0.99, "center": true, "trainable": true, "scale": true, "moving_variance_initializer": {"config": {}, "class_name": "Ones"}, "beta_initializer": {"config": {}, "class_name": "Zeros"}, "axis": 3, "gamma_constraint": null, "beta_constraint": null, "gamma_initializer": {"config": {}, "class_name": "Ones"}, "gamma_regularizer": null, "moving_mean_initializer": {"config": {}, "class_name": "Zeros"}, "name": "bn5a_branch2c", "epsilon": 0.001, "beta_regularizer": null}, "name": "bn5a_branch2c", "class_name": "BatchNormalization", "inbound_nodes": [[["res5a_branch2c", 0, 0, {}]]]}, {"config": {"momentum": 0.99, "center": true, "trainable": true, "scale": true, "moving_variance_initializer": {"config": {}, "class_name": "Ones"}, "beta_initializer": {"config": {}, "class_name": "Zeros"}, "axis": 3, "gamma_constraint": null, "beta_constraint": null, "gamma_initializer": {"config": {}, "class_name": "Ones"}, "gamma_regularizer": null, "moving_mean_initializer": {"config": {}, "class_name": "Zeros"}, "name": "bn5a_branch1", "epsilon": 0.001, "beta_regularizer": null}, "name": "bn5a_branch1", "class_name": "BatchNormalization", "inbound_nodes": [[["res5a_branch1", 0, 0, {}]]]}, {"config": {"name": "add_14", "trainable": true}, "name": "add_14", "class_name": "Add", "inbound_nodes": [[["bn5a_branch2c", 0, 0, {}], ["bn5a_branch1", 0, 0, {}]]]}, {"config": {"activation": "relu", "name": "activation_43", "trainable": true}, "name": "activation_43", "class_name": "Activation", "inbound_nodes": [[["add_14", 0, 0, {}]]]}, {"config": {"kernel_size": [1, 1], "activation": "linear", "kernel_regularizer": null, "filters": 512, "kernel_constraint": null, "padding": "valid", "dilation_rate": [1, 1], "data_format": "channels_last", "trainable": true, "bias_constraint": null, "kernel_initializer": {"config": {"mode": "fan_avg", "seed": null, "distribution": "uniform", "scale": 1.0}, "class_name": "VarianceScaling"}, "bias_initializer": {"config": {}, "class_name": "Zeros"}, "bias_regularizer": null, "activity_regularizer": null, "strides": [1, 1], "name": "res5b_branch2a", "use_bias": true}, "name": "res5b_branch2a", "class_name": "Conv2D", "inbound_nodes": [[["activation_43", 0, 0, {}]]]}, {"config": {"momentum": 0.99, "center": true, "trainable": true, "scale": true, "moving_variance_initializer": {"config": {}, "class_name": "Ones"}, "beta_initializer": {"config": {}, "class_name": "Zeros"}, "axis": 3, "gamma_constraint": null, "beta_constraint": null, "gamma_initializer": {"config": {}, "class_name": "Ones"}, "gamma_regularizer": null, "moving_mean_initializer": {"config": {}, "class_name": "Zeros"}, "name": "bn5b_branch2a", "epsilon": 0.001, "beta_regularizer": null}, "name": "bn5b_branch2a", "class_name": "BatchNormalization", "inbound_nodes": [[["res5b_branch2a", 0, 0, {}]]]}, {"config": {"activation": "relu", "name": "activation_44", "trainable": true}, "name": "activation_44", "class_name": "Activation", "inbound_nodes": [[["bn5b_branch2a", 0, 0, {}]]]}, {"config": {"kernel_size": [3, 3], "activation": "linear", "kernel_regularizer": null, "filters": 512, "kernel_constraint": null, "padding": "same", "dilation_rate": [1, 1], "data_format": "channels_last", "trainable": true, "bias_constraint": null, "kernel_initializer": {"config": {"mode": "fan_avg", "seed": null, "distribution": "uniform", "scale": 1.0}, "class_name": "VarianceScaling"}, "bias_initializer": {"config": {}, "class_name": "Zeros"}, "bias_regularizer": null, "activity_regularizer": null, "strides": [1, 1], "name": "res5b_branch2b", "use_bias": true}, "name": "res5b_branch2b", "class_name": "Conv2D", "inbound_nodes": [[["activation_44", 0, 0, {}]]]}, {"config": {"momentum": 0.99, "center": true, "trainable": true, "scale": true, "moving_variance_initializer": {"config": {}, "class_name": "Ones"}, "beta_initializer": {"config": {}, "class_name": "Zeros"}, "axis": 3, "gamma_constraint": null, "beta_constraint": null, "gamma_initializer": {"config": {}, "class_name": "Ones"}, "gamma_regularizer": null, "moving_mean_initializer": {"config": {}, "class_name": "Zeros"}, "name": "bn5b_branch2b", "epsilon": 0.001, "beta_regularizer": null}, "name": "bn5b_branch2b", "class_name": "BatchNormalization", "inbound_nodes": [[["res5b_branch2b", 0, 0, {}]]]}, {"config": {"activation": "relu", "name": "activation_45", "trainable": true}, "name": "activation_45", "class_name": "Activation", "inbound_nodes": [[["bn5b_branch2b", 0, 0, {}]]]}, {"config": {"kernel_size": [1, 1], "activation": "linear", "kernel_regularizer": null, "filters": 2048, "kernel_constraint": null, "padding": "valid", "dilation_rate": [1, 1], "data_format": "channels_last", "trainable": true, "bias_constraint": null, "kernel_initializer": {"config": {"mode": "fan_avg", "seed": null, "distribution": "uniform", "scale": 1.0}, "class_name": "VarianceScaling"}, "bias_initializer": {"config": {}, "class_name": "Zeros"}, "bias_regularizer": null, "activity_regularizer": null, "strides": [1, 1], "name": "res5b_branch2c", "use_bias": true}, "name": "res5b_branch2c", "class_name": "Conv2D", "inbound_nodes": [[["activation_45", 0, 0, {}]]]}, {"config": {"momentum": 0.99, "center": true, "trainable": true, "scale": true, "moving_variance_initializer": {"config": {}, "class_name": "Ones"}, "beta_initializer": {"config": {}, "class_name": "Zeros"}, "axis": 3, "gamma_constraint": null, "beta_constraint": null, "gamma_initializer": {"config": {}, "class_name": "Ones"}, "gamma_regularizer": null, "moving_mean_initializer": {"config": {}, "class_name": "Zeros"}, "name": "bn5b_branch2c", "epsilon": 0.001, "beta_regularizer": null}, "name": "bn5b_branch2c", "class_name": "BatchNormalization", "inbound_nodes": [[["res5b_branch2c", 0, 0, {}]]]}, {"config": {"name": "add_15", "trainable": true}, "name": "add_15", "class_name": "Add", "inbound_nodes": [[["bn5b_branch2c", 0, 0, {}], ["activation_43", 0, 0, {}]]]}, {"config": {"activation": "relu", "name": "activation_46", "trainable": true}, "name": "activation_46", "class_name": "Activation", "inbound_nodes": [[["add_15", 0, 0, {}]]]}, {"config": {"kernel_size": [1, 1], "activation": "linear", "kernel_regularizer": null, "filters": 512, "kernel_constraint": null, "padding": "valid", "dilation_rate": [1, 1], "data_format": "channels_last", "trainable": true, "bias_constraint": null, "kernel_initializer": {"config": {"mode": "fan_avg", "seed": null, "distribution": "uniform", "scale": 1.0}, "class_name": "VarianceScaling"}, "bias_initializer": {"config": {}, "class_name": "Zeros"}, "bias_regularizer": null, "activity_regularizer": null, "strides": [1, 1], "name": "res5c_branch2a", "use_bias": true}, "name": "res5c_branch2a", "class_name": "Conv2D", "inbound_nodes": [[["activation_46", 0, 0, {}]]]}, {"config": {"momentum": 0.99, "center": true, "trainable": true, "scale": true, "moving_variance_initializer": {"config": {}, "class_name": "Ones"}, "beta_initializer": {"config": {}, "class_name": "Zeros"}, "axis": 3, "gamma_constraint": null, "beta_constraint": null, "gamma_initializer": {"config": {}, "class_name": "Ones"}, "gamma_regularizer": null, "moving_mean_initializer": {"config": {}, "class_name": "Zeros"}, "name": "bn5c_branch2a", "epsilon": 0.001, "beta_regularizer": null}, "name": "bn5c_branch2a", "class_name": "BatchNormalization", "inbound_nodes": [[["res5c_branch2a", 0, 0, {}]]]}, {"config": {"activation": "relu", "name": "activation_47", "trainable": true}, "name": "activation_47", "class_name": "Activation", "inbound_nodes": [[["bn5c_branch2a", 0, 0, {}]]]}, {"config": {"kernel_size": [3, 3], "activation": "linear", "kernel_regularizer": null, "filters": 512, "kernel_constraint": null, "padding": "same", "dilation_rate": [1, 1], "data_format": "channels_last", "trainable": true, "bias_constraint": null, "kernel_initializer": {"config": {"mode": "fan_avg", "seed": null, "distribution": "uniform", "scale": 1.0}, "class_name": "VarianceScaling"}, "bias_initializer": {"config": {}, "class_name": "Zeros"}, "bias_regularizer": null, "activity_regularizer": null, "strides": [1, 1], "name": "res5c_branch2b", "use_bias": true}, "name": "res5c_branch2b", "class_name": "Conv2D", "inbound_nodes": [[["activation_47", 0, 0, {}]]]}, {"config": {"momentum": 0.99, "center": true, "trainable": true, "scale": true, "moving_variance_initializer": {"config": {}, "class_name": "Ones"}, "beta_initializer": {"config": {}, "class_name": "Zeros"}, "axis": 3, "gamma_constraint": null, "beta_constraint": null, "gamma_initializer": {"config": {}, "class_name": "Ones"}, "gamma_regularizer": null, "moving_mean_initializer": {"config": {}, "class_name": "Zeros"}, "name": "bn5c_branch2b", "epsilon": 0.001, "beta_regularizer": null}, "name": "bn5c_branch2b", "class_name": "BatchNormalization", "inbound_nodes": [[["res5c_branch2b", 0, 0, {}]]]}, {"config": {"activation": "relu", "name": "activation_48", "trainable": true}, "name": "activation_48", "class_name": "Activation", "inbound_nodes": [[["bn5c_branch2b", 0, 0, {}]]]}, {"config": {"kernel_size": [1, 1], "activation": "linear", "kernel_regularizer": null, "filters": 2048, "kernel_constraint": null, "padding": "valid", "dilation_rate": [1, 1], "data_format": "channels_last", "trainable": true, "bias_constraint": null, "kernel_initializer": {"config": {"mode": "fan_avg", "seed": null, "distribution": "uniform", "scale": 1.0}, "class_name": "VarianceScaling"}, "bias_initializer": {"config": {}, "class_name": "Zeros"}, "bias_regularizer": null, "activity_regularizer": null, "strides": [1, 1], "name": "res5c_branch2c", "use_bias": true}, "name": "res5c_branch2c", "class_name": "Conv2D", "inbound_nodes": [[["activation_48", 0, 0, {}]]]}, {"config": {"momentum": 0.99, "center": true, "trainable": true, "scale": true, "moving_variance_initializer": {"config": {}, "class_name": "Ones"}, "beta_initializer": {"config": {}, "class_name": "Zeros"}, "axis": 3, "gamma_constraint": null, "beta_constraint": null, "gamma_initializer": {"config": {}, "class_name": "Ones"}, "gamma_regularizer": null, "moving_mean_initializer": {"config": {}, "class_name": "Zeros"}, "name": "bn5c_branch2c", "epsilon": 0.001, "beta_regularizer": null}, "name": "bn5c_branch2c", "class_name": "BatchNormalization", "inbound_nodes": [[["res5c_branch2c", 0, 0, {}]]]}, {"config": {"name": "add_16", "trainable": true}, "name": "add_16", "class_name": "Add", "inbound_nodes": [[["bn5c_branch2c", 0, 0, {}], ["activation_46", 0, 0, {}]]]}, {"config": {"activation": "relu", "name": "activation_49", "trainable": true}, "name": "activation_49", "class_name": "Activation", "inbound_nodes": [[["add_16", 0, 0, {}]]]}, {"config": {"padding": "valid", "name": "avg_pool", "data_format": "channels_last", "pool_size": [7, 7], "trainable": true, "strides": [7, 7]}, "name": "avg_pool", "class_name": "AveragePooling2D", "inbound_nodes": [[["activation_49", 0, 0, {}]]]}, {"config": {"data_format": "channels_last", "name": "flatten_1", "trainable": true}, "name": "flatten_1", "class_name": "Flatten", "inbound_nodes": [[["avg_pool", 0, 0, {}]]]}, {"config": {"kernel_initializer": {"config": {"mode": "fan_avg", "seed": null, "distribution": "uniform", "scale": 1.0}, "class_name": "VarianceScaling"}, "activation": "softmax", "kernel_regularizer": null, "kernel_constraint": null, "bias_initializer": {"config": {}, "class_name": "Zeros"}, "trainable": true, "bias_constraint": null, "units": 1000, "bias_regularizer": null, "activity_regularizer": null, "name": "fc1000", "use_bias": true}, "name": "fc1000", "class_name": "Dense", "inbound_nodes": [[["flatten_1", 0, 0, {}]]]}, {"config": {"activation": "relu", "name": "activation_50", "trainable": true}, "name": "activation_50", "class_name": "Activation", "inbound_nodes": [[["fc1000", 0, 0, {}]]]}, {"config": {"noise_shape": null, "name": "dropout_1", "trainable": true, "seed": null, "rate": 0.25}, "name": "dropout_1", "class_name": "Dropout", "inbound_nodes": [[["activation_50", 0, 0, {}]]]}, {"config": {"kernel_initializer": {"config": {"mode": "fan_avg", "seed": null, "distribution": "uniform", "scale": 1.0}, "class_name": "VarianceScaling"}, "activation": "softmax", "kernel_regularizer": null, "kernel_constraint": null, "bias_initializer": {"config": {}, "class_name": "Zeros"}, "trainable": true, "bias_constraint": null, "units": 2, "bias_regularizer": null, "activity_regularizer": null, "name": "dense_1", "use_bias": true}, "name": "dense_1", "class_name": "Dense", "inbound_nodes": [[["dropout_1", 0, 0, {}]]]}], "input_layers": [["input_1", 0, 0]], "output_layers": [["dense_1", 0, 0]]}, "class_name": "Model", "keras_version": "2.2.0", "backend": "tensorflow"}